{
  "format": "layers-model",
  "generatedBy": "keras v2.8.0",
  "convertedBy": "TensorFlow.js Converter v3.18.0",
  "modelTopology": {
    "keras_version": "2.8.0",
    "backend": "tensorflow",
    "model_config": {
      "class_name": "Functional",
      "config": {
        "name": "inception_resnet_v1",
        "layers": [
          {
            "class_name": "InputLayer",
            "config": {
              "batch_input_shape": [null, 160, 160, 3],
              "dtype": "float32",
              "sparse": false,
              "ragged": false,
              "name": "input_9"
            },
            "name": "input_9",
            "inbound_nodes": []
          },
          {
            "class_name": "Conv2D",
            "config": {
              "name": "Conv2d_1a_3x3",
              "trainable": true,
              "dtype": "float32",
              "filters": 32,
              "kernel_size": [3, 3],
              "strides": [2, 2],
              "padding": "valid",
              "data_format": "channels_last",
              "dilation_rate": [1, 1],
              "groups": 1,
              "activation": "linear",
              "use_bias": false,
              "kernel_initializer": {
                "class_name": "GlorotUniform",
                "config": { "seed": null }
              },
              "bias_initializer": { "class_name": "Zeros", "config": {} },
              "kernel_regularizer": null,
              "bias_regularizer": null,
              "activity_regularizer": null,
              "kernel_constraint": null,
              "bias_constraint": null
            },
            "name": "Conv2d_1a_3x3",
            "inbound_nodes": [[["input_9", 0, 0, {}]]]
          },
          {
            "class_name": "BatchNormalization",
            "config": {
              "name": "Conv2d_1a_3x3_BatchNorm",
              "trainable": true,
              "dtype": "float32",
              "axis": [3],
              "momentum": 0.995,
              "epsilon": 0.001,
              "center": true,
              "scale": false,
              "beta_initializer": { "class_name": "Zeros", "config": {} },
              "gamma_initializer": { "class_name": "Ones", "config": {} },
              "moving_mean_initializer": {
                "class_name": "Zeros",
                "config": {}
              },
              "moving_variance_initializer": {
                "class_name": "Ones",
                "config": {}
              },
              "beta_regularizer": null,
              "gamma_regularizer": null,
              "beta_constraint": null,
              "gamma_constraint": null
            },
            "name": "Conv2d_1a_3x3_BatchNorm",
            "inbound_nodes": [[["Conv2d_1a_3x3", 0, 0, {}]]]
          },
          {
            "class_name": "Activation",
            "config": {
              "name": "Conv2d_1a_3x3_Activation",
              "trainable": true,
              "dtype": "float32",
              "activation": "relu"
            },
            "name": "Conv2d_1a_3x3_Activation",
            "inbound_nodes": [[["Conv2d_1a_3x3_BatchNorm", 0, 0, {}]]]
          },
          {
            "class_name": "Conv2D",
            "config": {
              "name": "Conv2d_2a_3x3",
              "trainable": true,
              "dtype": "float32",
              "filters": 32,
              "kernel_size": [3, 3],
              "strides": [1, 1],
              "padding": "valid",
              "data_format": "channels_last",
              "dilation_rate": [1, 1],
              "groups": 1,
              "activation": "linear",
              "use_bias": false,
              "kernel_initializer": {
                "class_name": "GlorotUniform",
                "config": { "seed": null }
              },
              "bias_initializer": { "class_name": "Zeros", "config": {} },
              "kernel_regularizer": null,
              "bias_regularizer": null,
              "activity_regularizer": null,
              "kernel_constraint": null,
              "bias_constraint": null
            },
            "name": "Conv2d_2a_3x3",
            "inbound_nodes": [[["Conv2d_1a_3x3_Activation", 0, 0, {}]]]
          },
          {
            "class_name": "BatchNormalization",
            "config": {
              "name": "Conv2d_2a_3x3_BatchNorm",
              "trainable": true,
              "dtype": "float32",
              "axis": [3],
              "momentum": 0.995,
              "epsilon": 0.001,
              "center": true,
              "scale": false,
              "beta_initializer": { "class_name": "Zeros", "config": {} },
              "gamma_initializer": { "class_name": "Ones", "config": {} },
              "moving_mean_initializer": {
                "class_name": "Zeros",
                "config": {}
              },
              "moving_variance_initializer": {
                "class_name": "Ones",
                "config": {}
              },
              "beta_regularizer": null,
              "gamma_regularizer": null,
              "beta_constraint": null,
              "gamma_constraint": null
            },
            "name": "Conv2d_2a_3x3_BatchNorm",
            "inbound_nodes": [[["Conv2d_2a_3x3", 0, 0, {}]]]
          },
          {
            "class_name": "Activation",
            "config": {
              "name": "Conv2d_2a_3x3_Activation",
              "trainable": true,
              "dtype": "float32",
              "activation": "relu"
            },
            "name": "Conv2d_2a_3x3_Activation",
            "inbound_nodes": [[["Conv2d_2a_3x3_BatchNorm", 0, 0, {}]]]
          },
          {
            "class_name": "Conv2D",
            "config": {
              "name": "Conv2d_2b_3x3",
              "trainable": true,
              "dtype": "float32",
              "filters": 64,
              "kernel_size": [3, 3],
              "strides": [1, 1],
              "padding": "same",
              "data_format": "channels_last",
              "dilation_rate": [1, 1],
              "groups": 1,
              "activation": "linear",
              "use_bias": false,
              "kernel_initializer": {
                "class_name": "GlorotUniform",
                "config": { "seed": null }
              },
              "bias_initializer": { "class_name": "Zeros", "config": {} },
              "kernel_regularizer": null,
              "bias_regularizer": null,
              "activity_regularizer": null,
              "kernel_constraint": null,
              "bias_constraint": null
            },
            "name": "Conv2d_2b_3x3",
            "inbound_nodes": [[["Conv2d_2a_3x3_Activation", 0, 0, {}]]]
          },
          {
            "class_name": "BatchNormalization",
            "config": {
              "name": "Conv2d_2b_3x3_BatchNorm",
              "trainable": true,
              "dtype": "float32",
              "axis": [3],
              "momentum": 0.995,
              "epsilon": 0.001,
              "center": true,
              "scale": false,
              "beta_initializer": { "class_name": "Zeros", "config": {} },
              "gamma_initializer": { "class_name": "Ones", "config": {} },
              "moving_mean_initializer": {
                "class_name": "Zeros",
                "config": {}
              },
              "moving_variance_initializer": {
                "class_name": "Ones",
                "config": {}
              },
              "beta_regularizer": null,
              "gamma_regularizer": null,
              "beta_constraint": null,
              "gamma_constraint": null
            },
            "name": "Conv2d_2b_3x3_BatchNorm",
            "inbound_nodes": [[["Conv2d_2b_3x3", 0, 0, {}]]]
          },
          {
            "class_name": "Activation",
            "config": {
              "name": "Conv2d_2b_3x3_Activation",
              "trainable": true,
              "dtype": "float32",
              "activation": "relu"
            },
            "name": "Conv2d_2b_3x3_Activation",
            "inbound_nodes": [[["Conv2d_2b_3x3_BatchNorm", 0, 0, {}]]]
          },
          {
            "class_name": "MaxPooling2D",
            "config": {
              "name": "MaxPool_3a_3x3",
              "trainable": true,
              "dtype": "float32",
              "pool_size": [3, 3],
              "padding": "valid",
              "strides": [2, 2],
              "data_format": "channels_last"
            },
            "name": "MaxPool_3a_3x3",
            "inbound_nodes": [[["Conv2d_2b_3x3_Activation", 0, 0, {}]]]
          },
          {
            "class_name": "Conv2D",
            "config": {
              "name": "Conv2d_3b_1x1",
              "trainable": true,
              "dtype": "float32",
              "filters": 80,
              "kernel_size": [1, 1],
              "strides": [1, 1],
              "padding": "valid",
              "data_format": "channels_last",
              "dilation_rate": [1, 1],
              "groups": 1,
              "activation": "linear",
              "use_bias": false,
              "kernel_initializer": {
                "class_name": "GlorotUniform",
                "config": { "seed": null }
              },
              "bias_initializer": { "class_name": "Zeros", "config": {} },
              "kernel_regularizer": null,
              "bias_regularizer": null,
              "activity_regularizer": null,
              "kernel_constraint": null,
              "bias_constraint": null
            },
            "name": "Conv2d_3b_1x1",
            "inbound_nodes": [[["MaxPool_3a_3x3", 0, 0, {}]]]
          },
          {
            "class_name": "BatchNormalization",
            "config": {
              "name": "Conv2d_3b_1x1_BatchNorm",
              "trainable": true,
              "dtype": "float32",
              "axis": [3],
              "momentum": 0.995,
              "epsilon": 0.001,
              "center": true,
              "scale": false,
              "beta_initializer": { "class_name": "Zeros", "config": {} },
              "gamma_initializer": { "class_name": "Ones", "config": {} },
              "moving_mean_initializer": {
                "class_name": "Zeros",
                "config": {}
              },
              "moving_variance_initializer": {
                "class_name": "Ones",
                "config": {}
              },
              "beta_regularizer": null,
              "gamma_regularizer": null,
              "beta_constraint": null,
              "gamma_constraint": null
            },
            "name": "Conv2d_3b_1x1_BatchNorm",
            "inbound_nodes": [[["Conv2d_3b_1x1", 0, 0, {}]]]
          },
          {
            "class_name": "Activation",
            "config": {
              "name": "Conv2d_3b_1x1_Activation",
              "trainable": true,
              "dtype": "float32",
              "activation": "relu"
            },
            "name": "Conv2d_3b_1x1_Activation",
            "inbound_nodes": [[["Conv2d_3b_1x1_BatchNorm", 0, 0, {}]]]
          },
          {
            "class_name": "Conv2D",
            "config": {
              "name": "Conv2d_4a_3x3",
              "trainable": true,
              "dtype": "float32",
              "filters": 192,
              "kernel_size": [3, 3],
              "strides": [1, 1],
              "padding": "valid",
              "data_format": "channels_last",
              "dilation_rate": [1, 1],
              "groups": 1,
              "activation": "linear",
              "use_bias": false,
              "kernel_initializer": {
                "class_name": "GlorotUniform",
                "config": { "seed": null }
              },
              "bias_initializer": { "class_name": "Zeros", "config": {} },
              "kernel_regularizer": null,
              "bias_regularizer": null,
              "activity_regularizer": null,
              "kernel_constraint": null,
              "bias_constraint": null
            },
            "name": "Conv2d_4a_3x3",
            "inbound_nodes": [[["Conv2d_3b_1x1_Activation", 0, 0, {}]]]
          },
          {
            "class_name": "BatchNormalization",
            "config": {
              "name": "Conv2d_4a_3x3_BatchNorm",
              "trainable": true,
              "dtype": "float32",
              "axis": [3],
              "momentum": 0.995,
              "epsilon": 0.001,
              "center": true,
              "scale": false,
              "beta_initializer": { "class_name": "Zeros", "config": {} },
              "gamma_initializer": { "class_name": "Ones", "config": {} },
              "moving_mean_initializer": {
                "class_name": "Zeros",
                "config": {}
              },
              "moving_variance_initializer": {
                "class_name": "Ones",
                "config": {}
              },
              "beta_regularizer": null,
              "gamma_regularizer": null,
              "beta_constraint": null,
              "gamma_constraint": null
            },
            "name": "Conv2d_4a_3x3_BatchNorm",
            "inbound_nodes": [[["Conv2d_4a_3x3", 0, 0, {}]]]
          },
          {
            "class_name": "Activation",
            "config": {
              "name": "Conv2d_4a_3x3_Activation",
              "trainable": true,
              "dtype": "float32",
              "activation": "relu"
            },
            "name": "Conv2d_4a_3x3_Activation",
            "inbound_nodes": [[["Conv2d_4a_3x3_BatchNorm", 0, 0, {}]]]
          },
          {
            "class_name": "Conv2D",
            "config": {
              "name": "Conv2d_4b_3x3",
              "trainable": true,
              "dtype": "float32",
              "filters": 256,
              "kernel_size": [3, 3],
              "strides": [2, 2],
              "padding": "valid",
              "data_format": "channels_last",
              "dilation_rate": [1, 1],
              "groups": 1,
              "activation": "linear",
              "use_bias": false,
              "kernel_initializer": {
                "class_name": "GlorotUniform",
                "config": { "seed": null }
              },
              "bias_initializer": { "class_name": "Zeros", "config": {} },
              "kernel_regularizer": null,
              "bias_regularizer": null,
              "activity_regularizer": null,
              "kernel_constraint": null,
              "bias_constraint": null
            },
            "name": "Conv2d_4b_3x3",
            "inbound_nodes": [[["Conv2d_4a_3x3_Activation", 0, 0, {}]]]
          },
          {
            "class_name": "BatchNormalization",
            "config": {
              "name": "Conv2d_4b_3x3_BatchNorm",
              "trainable": true,
              "dtype": "float32",
              "axis": [3],
              "momentum": 0.995,
              "epsilon": 0.001,
              "center": true,
              "scale": false,
              "beta_initializer": { "class_name": "Zeros", "config": {} },
              "gamma_initializer": { "class_name": "Ones", "config": {} },
              "moving_mean_initializer": {
                "class_name": "Zeros",
                "config": {}
              },
              "moving_variance_initializer": {
                "class_name": "Ones",
                "config": {}
              },
              "beta_regularizer": null,
              "gamma_regularizer": null,
              "beta_constraint": null,
              "gamma_constraint": null
            },
            "name": "Conv2d_4b_3x3_BatchNorm",
            "inbound_nodes": [[["Conv2d_4b_3x3", 0, 0, {}]]]
          },
          {
            "class_name": "Activation",
            "config": {
              "name": "Conv2d_4b_3x3_Activation",
              "trainable": true,
              "dtype": "float32",
              "activation": "relu"
            },
            "name": "Conv2d_4b_3x3_Activation",
            "inbound_nodes": [[["Conv2d_4b_3x3_BatchNorm", 0, 0, {}]]]
          },
          {
            "class_name": "Conv2D",
            "config": {
              "name": "Block35_1_Branch_2_Conv2d_0a_1x1",
              "trainable": true,
              "dtype": "float32",
              "filters": 32,
              "kernel_size": [1, 1],
              "strides": [1, 1],
              "padding": "same",
              "data_format": "channels_last",
              "dilation_rate": [1, 1],
              "groups": 1,
              "activation": "linear",
              "use_bias": false,
              "kernel_initializer": {
                "class_name": "GlorotUniform",
                "config": { "seed": null }
              },
              "bias_initializer": { "class_name": "Zeros", "config": {} },
              "kernel_regularizer": null,
              "bias_regularizer": null,
              "activity_regularizer": null,
              "kernel_constraint": null,
              "bias_constraint": null
            },
            "name": "Block35_1_Branch_2_Conv2d_0a_1x1",
            "inbound_nodes": [[["Conv2d_4b_3x3_Activation", 0, 0, {}]]]
          },
          {
            "class_name": "BatchNormalization",
            "config": {
              "name": "Block35_1_Branch_2_Conv2d_0a_1x1_BatchNorm",
              "trainable": true,
              "dtype": "float32",
              "axis": [3],
              "momentum": 0.995,
              "epsilon": 0.001,
              "center": true,
              "scale": false,
              "beta_initializer": { "class_name": "Zeros", "config": {} },
              "gamma_initializer": { "class_name": "Ones", "config": {} },
              "moving_mean_initializer": {
                "class_name": "Zeros",
                "config": {}
              },
              "moving_variance_initializer": {
                "class_name": "Ones",
                "config": {}
              },
              "beta_regularizer": null,
              "gamma_regularizer": null,
              "beta_constraint": null,
              "gamma_constraint": null
            },
            "name": "Block35_1_Branch_2_Conv2d_0a_1x1_BatchNorm",
            "inbound_nodes": [[["Block35_1_Branch_2_Conv2d_0a_1x1", 0, 0, {}]]]
          },
          {
            "class_name": "Activation",
            "config": {
              "name": "Block35_1_Branch_2_Conv2d_0a_1x1_Activation",
              "trainable": true,
              "dtype": "float32",
              "activation": "relu"
            },
            "name": "Block35_1_Branch_2_Conv2d_0a_1x1_Activation",
            "inbound_nodes": [
              [["Block35_1_Branch_2_Conv2d_0a_1x1_BatchNorm", 0, 0, {}]]
            ]
          },
          {
            "class_name": "Conv2D",
            "config": {
              "name": "Block35_1_Branch_1_Conv2d_0a_1x1",
              "trainable": true,
              "dtype": "float32",
              "filters": 32,
              "kernel_size": [1, 1],
              "strides": [1, 1],
              "padding": "same",
              "data_format": "channels_last",
              "dilation_rate": [1, 1],
              "groups": 1,
              "activation": "linear",
              "use_bias": false,
              "kernel_initializer": {
                "class_name": "GlorotUniform",
                "config": { "seed": null }
              },
              "bias_initializer": { "class_name": "Zeros", "config": {} },
              "kernel_regularizer": null,
              "bias_regularizer": null,
              "activity_regularizer": null,
              "kernel_constraint": null,
              "bias_constraint": null
            },
            "name": "Block35_1_Branch_1_Conv2d_0a_1x1",
            "inbound_nodes": [[["Conv2d_4b_3x3_Activation", 0, 0, {}]]]
          },
          {
            "class_name": "Conv2D",
            "config": {
              "name": "Block35_1_Branch_2_Conv2d_0b_3x3",
              "trainable": true,
              "dtype": "float32",
              "filters": 32,
              "kernel_size": [3, 3],
              "strides": [1, 1],
              "padding": "same",
              "data_format": "channels_last",
              "dilation_rate": [1, 1],
              "groups": 1,
              "activation": "linear",
              "use_bias": false,
              "kernel_initializer": {
                "class_name": "GlorotUniform",
                "config": { "seed": null }
              },
              "bias_initializer": { "class_name": "Zeros", "config": {} },
              "kernel_regularizer": null,
              "bias_regularizer": null,
              "activity_regularizer": null,
              "kernel_constraint": null,
              "bias_constraint": null
            },
            "name": "Block35_1_Branch_2_Conv2d_0b_3x3",
            "inbound_nodes": [
              [["Block35_1_Branch_2_Conv2d_0a_1x1_Activation", 0, 0, {}]]
            ]
          },
          {
            "class_name": "BatchNormalization",
            "config": {
              "name": "Block35_1_Branch_1_Conv2d_0a_1x1_BatchNorm",
              "trainable": true,
              "dtype": "float32",
              "axis": [3],
              "momentum": 0.995,
              "epsilon": 0.001,
              "center": true,
              "scale": false,
              "beta_initializer": { "class_name": "Zeros", "config": {} },
              "gamma_initializer": { "class_name": "Ones", "config": {} },
              "moving_mean_initializer": {
                "class_name": "Zeros",
                "config": {}
              },
              "moving_variance_initializer": {
                "class_name": "Ones",
                "config": {}
              },
              "beta_regularizer": null,
              "gamma_regularizer": null,
              "beta_constraint": null,
              "gamma_constraint": null
            },
            "name": "Block35_1_Branch_1_Conv2d_0a_1x1_BatchNorm",
            "inbound_nodes": [[["Block35_1_Branch_1_Conv2d_0a_1x1", 0, 0, {}]]]
          },
          {
            "class_name": "BatchNormalization",
            "config": {
              "name": "Block35_1_Branch_2_Conv2d_0b_3x3_BatchNorm",
              "trainable": true,
              "dtype": "float32",
              "axis": [3],
              "momentum": 0.995,
              "epsilon": 0.001,
              "center": true,
              "scale": false,
              "beta_initializer": { "class_name": "Zeros", "config": {} },
              "gamma_initializer": { "class_name": "Ones", "config": {} },
              "moving_mean_initializer": {
                "class_name": "Zeros",
                "config": {}
              },
              "moving_variance_initializer": {
                "class_name": "Ones",
                "config": {}
              },
              "beta_regularizer": null,
              "gamma_regularizer": null,
              "beta_constraint": null,
              "gamma_constraint": null
            },
            "name": "Block35_1_Branch_2_Conv2d_0b_3x3_BatchNorm",
            "inbound_nodes": [[["Block35_1_Branch_2_Conv2d_0b_3x3", 0, 0, {}]]]
          },
          {
            "class_name": "Activation",
            "config": {
              "name": "Block35_1_Branch_1_Conv2d_0a_1x1_Activation",
              "trainable": true,
              "dtype": "float32",
              "activation": "relu"
            },
            "name": "Block35_1_Branch_1_Conv2d_0a_1x1_Activation",
            "inbound_nodes": [
              [["Block35_1_Branch_1_Conv2d_0a_1x1_BatchNorm", 0, 0, {}]]
            ]
          },
          {
            "class_name": "Activation",
            "config": {
              "name": "Block35_1_Branch_2_Conv2d_0b_3x3_Activation",
              "trainable": true,
              "dtype": "float32",
              "activation": "relu"
            },
            "name": "Block35_1_Branch_2_Conv2d_0b_3x3_Activation",
            "inbound_nodes": [
              [["Block35_1_Branch_2_Conv2d_0b_3x3_BatchNorm", 0, 0, {}]]
            ]
          },
          {
            "class_name": "Conv2D",
            "config": {
              "name": "Block35_1_Branch_0_Conv2d_1x1",
              "trainable": true,
              "dtype": "float32",
              "filters": 32,
              "kernel_size": [1, 1],
              "strides": [1, 1],
              "padding": "same",
              "data_format": "channels_last",
              "dilation_rate": [1, 1],
              "groups": 1,
              "activation": "linear",
              "use_bias": false,
              "kernel_initializer": {
                "class_name": "GlorotUniform",
                "config": { "seed": null }
              },
              "bias_initializer": { "class_name": "Zeros", "config": {} },
              "kernel_regularizer": null,
              "bias_regularizer": null,
              "activity_regularizer": null,
              "kernel_constraint": null,
              "bias_constraint": null
            },
            "name": "Block35_1_Branch_0_Conv2d_1x1",
            "inbound_nodes": [[["Conv2d_4b_3x3_Activation", 0, 0, {}]]]
          },
          {
            "class_name": "Conv2D",
            "config": {
              "name": "Block35_1_Branch_1_Conv2d_0b_3x3",
              "trainable": true,
              "dtype": "float32",
              "filters": 32,
              "kernel_size": [3, 3],
              "strides": [1, 1],
              "padding": "same",
              "data_format": "channels_last",
              "dilation_rate": [1, 1],
              "groups": 1,
              "activation": "linear",
              "use_bias": false,
              "kernel_initializer": {
                "class_name": "GlorotUniform",
                "config": { "seed": null }
              },
              "bias_initializer": { "class_name": "Zeros", "config": {} },
              "kernel_regularizer": null,
              "bias_regularizer": null,
              "activity_regularizer": null,
              "kernel_constraint": null,
              "bias_constraint": null
            },
            "name": "Block35_1_Branch_1_Conv2d_0b_3x3",
            "inbound_nodes": [
              [["Block35_1_Branch_1_Conv2d_0a_1x1_Activation", 0, 0, {}]]
            ]
          },
          {
            "class_name": "Conv2D",
            "config": {
              "name": "Block35_1_Branch_2_Conv2d_0c_3x3",
              "trainable": true,
              "dtype": "float32",
              "filters": 32,
              "kernel_size": [3, 3],
              "strides": [1, 1],
              "padding": "same",
              "data_format": "channels_last",
              "dilation_rate": [1, 1],
              "groups": 1,
              "activation": "linear",
              "use_bias": false,
              "kernel_initializer": {
                "class_name": "GlorotUniform",
                "config": { "seed": null }
              },
              "bias_initializer": { "class_name": "Zeros", "config": {} },
              "kernel_regularizer": null,
              "bias_regularizer": null,
              "activity_regularizer": null,
              "kernel_constraint": null,
              "bias_constraint": null
            },
            "name": "Block35_1_Branch_2_Conv2d_0c_3x3",
            "inbound_nodes": [
              [["Block35_1_Branch_2_Conv2d_0b_3x3_Activation", 0, 0, {}]]
            ]
          },
          {
            "class_name": "BatchNormalization",
            "config": {
              "name": "Block35_1_Branch_0_Conv2d_1x1_BatchNorm",
              "trainable": true,
              "dtype": "float32",
              "axis": [3],
              "momentum": 0.995,
              "epsilon": 0.001,
              "center": true,
              "scale": false,
              "beta_initializer": { "class_name": "Zeros", "config": {} },
              "gamma_initializer": { "class_name": "Ones", "config": {} },
              "moving_mean_initializer": {
                "class_name": "Zeros",
                "config": {}
              },
              "moving_variance_initializer": {
                "class_name": "Ones",
                "config": {}
              },
              "beta_regularizer": null,
              "gamma_regularizer": null,
              "beta_constraint": null,
              "gamma_constraint": null
            },
            "name": "Block35_1_Branch_0_Conv2d_1x1_BatchNorm",
            "inbound_nodes": [[["Block35_1_Branch_0_Conv2d_1x1", 0, 0, {}]]]
          },
          {
            "class_name": "BatchNormalization",
            "config": {
              "name": "Block35_1_Branch_1_Conv2d_0b_3x3_BatchNorm",
              "trainable": true,
              "dtype": "float32",
              "axis": [3],
              "momentum": 0.995,
              "epsilon": 0.001,
              "center": true,
              "scale": false,
              "beta_initializer": { "class_name": "Zeros", "config": {} },
              "gamma_initializer": { "class_name": "Ones", "config": {} },
              "moving_mean_initializer": {
                "class_name": "Zeros",
                "config": {}
              },
              "moving_variance_initializer": {
                "class_name": "Ones",
                "config": {}
              },
              "beta_regularizer": null,
              "gamma_regularizer": null,
              "beta_constraint": null,
              "gamma_constraint": null
            },
            "name": "Block35_1_Branch_1_Conv2d_0b_3x3_BatchNorm",
            "inbound_nodes": [[["Block35_1_Branch_1_Conv2d_0b_3x3", 0, 0, {}]]]
          },
          {
            "class_name": "BatchNormalization",
            "config": {
              "name": "Block35_1_Branch_2_Conv2d_0c_3x3_BatchNorm",
              "trainable": true,
              "dtype": "float32",
              "axis": [3],
              "momentum": 0.995,
              "epsilon": 0.001,
              "center": true,
              "scale": false,
              "beta_initializer": { "class_name": "Zeros", "config": {} },
              "gamma_initializer": { "class_name": "Ones", "config": {} },
              "moving_mean_initializer": {
                "class_name": "Zeros",
                "config": {}
              },
              "moving_variance_initializer": {
                "class_name": "Ones",
                "config": {}
              },
              "beta_regularizer": null,
              "gamma_regularizer": null,
              "beta_constraint": null,
              "gamma_constraint": null
            },
            "name": "Block35_1_Branch_2_Conv2d_0c_3x3_BatchNorm",
            "inbound_nodes": [[["Block35_1_Branch_2_Conv2d_0c_3x3", 0, 0, {}]]]
          },
          {
            "class_name": "Activation",
            "config": {
              "name": "Block35_1_Branch_0_Conv2d_1x1_Activation",
              "trainable": true,
              "dtype": "float32",
              "activation": "relu"
            },
            "name": "Block35_1_Branch_0_Conv2d_1x1_Activation",
            "inbound_nodes": [
              [["Block35_1_Branch_0_Conv2d_1x1_BatchNorm", 0, 0, {}]]
            ]
          },
          {
            "class_name": "Activation",
            "config": {
              "name": "Block35_1_Branch_1_Conv2d_0b_3x3_Activation",
              "trainable": true,
              "dtype": "float32",
              "activation": "relu"
            },
            "name": "Block35_1_Branch_1_Conv2d_0b_3x3_Activation",
            "inbound_nodes": [
              [["Block35_1_Branch_1_Conv2d_0b_3x3_BatchNorm", 0, 0, {}]]
            ]
          },
          {
            "class_name": "Activation",
            "config": {
              "name": "Block35_1_Branch_2_Conv2d_0c_3x3_Activation",
              "trainable": true,
              "dtype": "float32",
              "activation": "relu"
            },
            "name": "Block35_1_Branch_2_Conv2d_0c_3x3_Activation",
            "inbound_nodes": [
              [["Block35_1_Branch_2_Conv2d_0c_3x3_BatchNorm", 0, 0, {}]]
            ]
          },
          {
            "class_name": "Concatenate",
            "config": {
              "name": "Block35_1_Concatenate",
              "trainable": true,
              "dtype": "float32",
              "axis": 3
            },
            "name": "Block35_1_Concatenate",
            "inbound_nodes": [
              [
                ["Block35_1_Branch_0_Conv2d_1x1_Activation", 0, 0, {}],
                ["Block35_1_Branch_1_Conv2d_0b_3x3_Activation", 0, 0, {}],
                ["Block35_1_Branch_2_Conv2d_0c_3x3_Activation", 0, 0, {}]
              ]
            ]
          },
          {
            "class_name": "Conv2D",
            "config": {
              "name": "Block35_1_Conv2d_1x1",
              "trainable": true,
              "dtype": "float32",
              "filters": 256,
              "kernel_size": [1, 1],
              "strides": [1, 1],
              "padding": "same",
              "data_format": "channels_last",
              "dilation_rate": [1, 1],
              "groups": 1,
              "activation": "linear",
              "use_bias": true,
              "kernel_initializer": {
                "class_name": "GlorotUniform",
                "config": { "seed": null }
              },
              "bias_initializer": { "class_name": "Zeros", "config": {} },
              "kernel_regularizer": null,
              "bias_regularizer": null,
              "activity_regularizer": null,
              "kernel_constraint": null,
              "bias_constraint": null
            },
            "name": "Block35_1_Conv2d_1x1",
            "inbound_nodes": [[["Block35_1_Concatenate", 0, 0, {}]]]
          },
          {
            "class_name": "Lambda",
            "config": {
              "name": "lambda_126",
              "trainable": true,
              "dtype": "float32",
              "function": [
                "4wIAAAAAAAAAAgAAAAIAAABDAAAAcwgAAAB8AHwBFABTACkBTqkAKQLaAXjaBXNjYWxlcgEAAABy\nAQAAAPofPGlweXRob24taW5wdXQtMTAtODZmMzlkNDUwYjkwPtoHc2NhbGluZwEAAABzAgAAAAAB\n",
                null,
                null
              ],
              "function_type": "lambda",
              "module": "__main__",
              "output_shape": [17, 17, 256],
              "output_shape_type": "raw",
              "output_shape_module": null,
              "arguments": { "scale": 0.17 }
            },
            "name": "lambda_126",
            "inbound_nodes": [[["Block35_1_Conv2d_1x1", 0, 0, {}]]]
          },
          {
            "class_name": "Add",
            "config": {
              "name": "add_126",
              "trainable": true,
              "dtype": "float32"
            },
            "name": "add_126",
            "inbound_nodes": [
              [
                ["Conv2d_4b_3x3_Activation", 0, 0, {}],
                ["lambda_126", 0, 0, {}]
              ]
            ]
          },
          {
            "class_name": "Activation",
            "config": {
              "name": "Block35_1_Activation",
              "trainable": true,
              "dtype": "float32",
              "activation": "relu"
            },
            "name": "Block35_1_Activation",
            "inbound_nodes": [[["add_126", 0, 0, {}]]]
          },
          {
            "class_name": "Conv2D",
            "config": {
              "name": "Block35_2_Branch_2_Conv2d_0a_1x1",
              "trainable": true,
              "dtype": "float32",
              "filters": 32,
              "kernel_size": [1, 1],
              "strides": [1, 1],
              "padding": "same",
              "data_format": "channels_last",
              "dilation_rate": [1, 1],
              "groups": 1,
              "activation": "linear",
              "use_bias": false,
              "kernel_initializer": {
                "class_name": "GlorotUniform",
                "config": { "seed": null }
              },
              "bias_initializer": { "class_name": "Zeros", "config": {} },
              "kernel_regularizer": null,
              "bias_regularizer": null,
              "activity_regularizer": null,
              "kernel_constraint": null,
              "bias_constraint": null
            },
            "name": "Block35_2_Branch_2_Conv2d_0a_1x1",
            "inbound_nodes": [[["Block35_1_Activation", 0, 0, {}]]]
          },
          {
            "class_name": "BatchNormalization",
            "config": {
              "name": "Block35_2_Branch_2_Conv2d_0a_1x1_BatchNorm",
              "trainable": true,
              "dtype": "float32",
              "axis": [3],
              "momentum": 0.995,
              "epsilon": 0.001,
              "center": true,
              "scale": false,
              "beta_initializer": { "class_name": "Zeros", "config": {} },
              "gamma_initializer": { "class_name": "Ones", "config": {} },
              "moving_mean_initializer": {
                "class_name": "Zeros",
                "config": {}
              },
              "moving_variance_initializer": {
                "class_name": "Ones",
                "config": {}
              },
              "beta_regularizer": null,
              "gamma_regularizer": null,
              "beta_constraint": null,
              "gamma_constraint": null
            },
            "name": "Block35_2_Branch_2_Conv2d_0a_1x1_BatchNorm",
            "inbound_nodes": [[["Block35_2_Branch_2_Conv2d_0a_1x1", 0, 0, {}]]]
          },
          {
            "class_name": "Activation",
            "config": {
              "name": "Block35_2_Branch_2_Conv2d_0a_1x1_Activation",
              "trainable": true,
              "dtype": "float32",
              "activation": "relu"
            },
            "name": "Block35_2_Branch_2_Conv2d_0a_1x1_Activation",
            "inbound_nodes": [
              [["Block35_2_Branch_2_Conv2d_0a_1x1_BatchNorm", 0, 0, {}]]
            ]
          },
          {
            "class_name": "Conv2D",
            "config": {
              "name": "Block35_2_Branch_1_Conv2d_0a_1x1",
              "trainable": true,
              "dtype": "float32",
              "filters": 32,
              "kernel_size": [1, 1],
              "strides": [1, 1],
              "padding": "same",
              "data_format": "channels_last",
              "dilation_rate": [1, 1],
              "groups": 1,
              "activation": "linear",
              "use_bias": false,
              "kernel_initializer": {
                "class_name": "GlorotUniform",
                "config": { "seed": null }
              },
              "bias_initializer": { "class_name": "Zeros", "config": {} },
              "kernel_regularizer": null,
              "bias_regularizer": null,
              "activity_regularizer": null,
              "kernel_constraint": null,
              "bias_constraint": null
            },
            "name": "Block35_2_Branch_1_Conv2d_0a_1x1",
            "inbound_nodes": [[["Block35_1_Activation", 0, 0, {}]]]
          },
          {
            "class_name": "Conv2D",
            "config": {
              "name": "Block35_2_Branch_2_Conv2d_0b_3x3",
              "trainable": true,
              "dtype": "float32",
              "filters": 32,
              "kernel_size": [3, 3],
              "strides": [1, 1],
              "padding": "same",
              "data_format": "channels_last",
              "dilation_rate": [1, 1],
              "groups": 1,
              "activation": "linear",
              "use_bias": false,
              "kernel_initializer": {
                "class_name": "GlorotUniform",
                "config": { "seed": null }
              },
              "bias_initializer": { "class_name": "Zeros", "config": {} },
              "kernel_regularizer": null,
              "bias_regularizer": null,
              "activity_regularizer": null,
              "kernel_constraint": null,
              "bias_constraint": null
            },
            "name": "Block35_2_Branch_2_Conv2d_0b_3x3",
            "inbound_nodes": [
              [["Block35_2_Branch_2_Conv2d_0a_1x1_Activation", 0, 0, {}]]
            ]
          },
          {
            "class_name": "BatchNormalization",
            "config": {
              "name": "Block35_2_Branch_1_Conv2d_0a_1x1_BatchNorm",
              "trainable": true,
              "dtype": "float32",
              "axis": [3],
              "momentum": 0.995,
              "epsilon": 0.001,
              "center": true,
              "scale": false,
              "beta_initializer": { "class_name": "Zeros", "config": {} },
              "gamma_initializer": { "class_name": "Ones", "config": {} },
              "moving_mean_initializer": {
                "class_name": "Zeros",
                "config": {}
              },
              "moving_variance_initializer": {
                "class_name": "Ones",
                "config": {}
              },
              "beta_regularizer": null,
              "gamma_regularizer": null,
              "beta_constraint": null,
              "gamma_constraint": null
            },
            "name": "Block35_2_Branch_1_Conv2d_0a_1x1_BatchNorm",
            "inbound_nodes": [[["Block35_2_Branch_1_Conv2d_0a_1x1", 0, 0, {}]]]
          },
          {
            "class_name": "BatchNormalization",
            "config": {
              "name": "Block35_2_Branch_2_Conv2d_0b_3x3_BatchNorm",
              "trainable": true,
              "dtype": "float32",
              "axis": [3],
              "momentum": 0.995,
              "epsilon": 0.001,
              "center": true,
              "scale": false,
              "beta_initializer": { "class_name": "Zeros", "config": {} },
              "gamma_initializer": { "class_name": "Ones", "config": {} },
              "moving_mean_initializer": {
                "class_name": "Zeros",
                "config": {}
              },
              "moving_variance_initializer": {
                "class_name": "Ones",
                "config": {}
              },
              "beta_regularizer": null,
              "gamma_regularizer": null,
              "beta_constraint": null,
              "gamma_constraint": null
            },
            "name": "Block35_2_Branch_2_Conv2d_0b_3x3_BatchNorm",
            "inbound_nodes": [[["Block35_2_Branch_2_Conv2d_0b_3x3", 0, 0, {}]]]
          },
          {
            "class_name": "Activation",
            "config": {
              "name": "Block35_2_Branch_1_Conv2d_0a_1x1_Activation",
              "trainable": true,
              "dtype": "float32",
              "activation": "relu"
            },
            "name": "Block35_2_Branch_1_Conv2d_0a_1x1_Activation",
            "inbound_nodes": [
              [["Block35_2_Branch_1_Conv2d_0a_1x1_BatchNorm", 0, 0, {}]]
            ]
          },
          {
            "class_name": "Activation",
            "config": {
              "name": "Block35_2_Branch_2_Conv2d_0b_3x3_Activation",
              "trainable": true,
              "dtype": "float32",
              "activation": "relu"
            },
            "name": "Block35_2_Branch_2_Conv2d_0b_3x3_Activation",
            "inbound_nodes": [
              [["Block35_2_Branch_2_Conv2d_0b_3x3_BatchNorm", 0, 0, {}]]
            ]
          },
          {
            "class_name": "Conv2D",
            "config": {
              "name": "Block35_2_Branch_0_Conv2d_1x1",
              "trainable": true,
              "dtype": "float32",
              "filters": 32,
              "kernel_size": [1, 1],
              "strides": [1, 1],
              "padding": "same",
              "data_format": "channels_last",
              "dilation_rate": [1, 1],
              "groups": 1,
              "activation": "linear",
              "use_bias": false,
              "kernel_initializer": {
                "class_name": "GlorotUniform",
                "config": { "seed": null }
              },
              "bias_initializer": { "class_name": "Zeros", "config": {} },
              "kernel_regularizer": null,
              "bias_regularizer": null,
              "activity_regularizer": null,
              "kernel_constraint": null,
              "bias_constraint": null
            },
            "name": "Block35_2_Branch_0_Conv2d_1x1",
            "inbound_nodes": [[["Block35_1_Activation", 0, 0, {}]]]
          },
          {
            "class_name": "Conv2D",
            "config": {
              "name": "Block35_2_Branch_1_Conv2d_0b_3x3",
              "trainable": true,
              "dtype": "float32",
              "filters": 32,
              "kernel_size": [3, 3],
              "strides": [1, 1],
              "padding": "same",
              "data_format": "channels_last",
              "dilation_rate": [1, 1],
              "groups": 1,
              "activation": "linear",
              "use_bias": false,
              "kernel_initializer": {
                "class_name": "GlorotUniform",
                "config": { "seed": null }
              },
              "bias_initializer": { "class_name": "Zeros", "config": {} },
              "kernel_regularizer": null,
              "bias_regularizer": null,
              "activity_regularizer": null,
              "kernel_constraint": null,
              "bias_constraint": null
            },
            "name": "Block35_2_Branch_1_Conv2d_0b_3x3",
            "inbound_nodes": [
              [["Block35_2_Branch_1_Conv2d_0a_1x1_Activation", 0, 0, {}]]
            ]
          },
          {
            "class_name": "Conv2D",
            "config": {
              "name": "Block35_2_Branch_2_Conv2d_0c_3x3",
              "trainable": true,
              "dtype": "float32",
              "filters": 32,
              "kernel_size": [3, 3],
              "strides": [1, 1],
              "padding": "same",
              "data_format": "channels_last",
              "dilation_rate": [1, 1],
              "groups": 1,
              "activation": "linear",
              "use_bias": false,
              "kernel_initializer": {
                "class_name": "GlorotUniform",
                "config": { "seed": null }
              },
              "bias_initializer": { "class_name": "Zeros", "config": {} },
              "kernel_regularizer": null,
              "bias_regularizer": null,
              "activity_regularizer": null,
              "kernel_constraint": null,
              "bias_constraint": null
            },
            "name": "Block35_2_Branch_2_Conv2d_0c_3x3",
            "inbound_nodes": [
              [["Block35_2_Branch_2_Conv2d_0b_3x3_Activation", 0, 0, {}]]
            ]
          },
          {
            "class_name": "BatchNormalization",
            "config": {
              "name": "Block35_2_Branch_0_Conv2d_1x1_BatchNorm",
              "trainable": true,
              "dtype": "float32",
              "axis": [3],
              "momentum": 0.995,
              "epsilon": 0.001,
              "center": true,
              "scale": false,
              "beta_initializer": { "class_name": "Zeros", "config": {} },
              "gamma_initializer": { "class_name": "Ones", "config": {} },
              "moving_mean_initializer": {
                "class_name": "Zeros",
                "config": {}
              },
              "moving_variance_initializer": {
                "class_name": "Ones",
                "config": {}
              },
              "beta_regularizer": null,
              "gamma_regularizer": null,
              "beta_constraint": null,
              "gamma_constraint": null
            },
            "name": "Block35_2_Branch_0_Conv2d_1x1_BatchNorm",
            "inbound_nodes": [[["Block35_2_Branch_0_Conv2d_1x1", 0, 0, {}]]]
          },
          {
            "class_name": "BatchNormalization",
            "config": {
              "name": "Block35_2_Branch_1_Conv2d_0b_3x3_BatchNorm",
              "trainable": true,
              "dtype": "float32",
              "axis": [3],
              "momentum": 0.995,
              "epsilon": 0.001,
              "center": true,
              "scale": false,
              "beta_initializer": { "class_name": "Zeros", "config": {} },
              "gamma_initializer": { "class_name": "Ones", "config": {} },
              "moving_mean_initializer": {
                "class_name": "Zeros",
                "config": {}
              },
              "moving_variance_initializer": {
                "class_name": "Ones",
                "config": {}
              },
              "beta_regularizer": null,
              "gamma_regularizer": null,
              "beta_constraint": null,
              "gamma_constraint": null
            },
            "name": "Block35_2_Branch_1_Conv2d_0b_3x3_BatchNorm",
            "inbound_nodes": [[["Block35_2_Branch_1_Conv2d_0b_3x3", 0, 0, {}]]]
          },
          {
            "class_name": "BatchNormalization",
            "config": {
              "name": "Block35_2_Branch_2_Conv2d_0c_3x3_BatchNorm",
              "trainable": true,
              "dtype": "float32",
              "axis": [3],
              "momentum": 0.995,
              "epsilon": 0.001,
              "center": true,
              "scale": false,
              "beta_initializer": { "class_name": "Zeros", "config": {} },
              "gamma_initializer": { "class_name": "Ones", "config": {} },
              "moving_mean_initializer": {
                "class_name": "Zeros",
                "config": {}
              },
              "moving_variance_initializer": {
                "class_name": "Ones",
                "config": {}
              },
              "beta_regularizer": null,
              "gamma_regularizer": null,
              "beta_constraint": null,
              "gamma_constraint": null
            },
            "name": "Block35_2_Branch_2_Conv2d_0c_3x3_BatchNorm",
            "inbound_nodes": [[["Block35_2_Branch_2_Conv2d_0c_3x3", 0, 0, {}]]]
          },
          {
            "class_name": "Activation",
            "config": {
              "name": "Block35_2_Branch_0_Conv2d_1x1_Activation",
              "trainable": true,
              "dtype": "float32",
              "activation": "relu"
            },
            "name": "Block35_2_Branch_0_Conv2d_1x1_Activation",
            "inbound_nodes": [
              [["Block35_2_Branch_0_Conv2d_1x1_BatchNorm", 0, 0, {}]]
            ]
          },
          {
            "class_name": "Activation",
            "config": {
              "name": "Block35_2_Branch_1_Conv2d_0b_3x3_Activation",
              "trainable": true,
              "dtype": "float32",
              "activation": "relu"
            },
            "name": "Block35_2_Branch_1_Conv2d_0b_3x3_Activation",
            "inbound_nodes": [
              [["Block35_2_Branch_1_Conv2d_0b_3x3_BatchNorm", 0, 0, {}]]
            ]
          },
          {
            "class_name": "Activation",
            "config": {
              "name": "Block35_2_Branch_2_Conv2d_0c_3x3_Activation",
              "trainable": true,
              "dtype": "float32",
              "activation": "relu"
            },
            "name": "Block35_2_Branch_2_Conv2d_0c_3x3_Activation",
            "inbound_nodes": [
              [["Block35_2_Branch_2_Conv2d_0c_3x3_BatchNorm", 0, 0, {}]]
            ]
          },
          {
            "class_name": "Concatenate",
            "config": {
              "name": "Block35_2_Concatenate",
              "trainable": true,
              "dtype": "float32",
              "axis": 3
            },
            "name": "Block35_2_Concatenate",
            "inbound_nodes": [
              [
                ["Block35_2_Branch_0_Conv2d_1x1_Activation", 0, 0, {}],
                ["Block35_2_Branch_1_Conv2d_0b_3x3_Activation", 0, 0, {}],
                ["Block35_2_Branch_2_Conv2d_0c_3x3_Activation", 0, 0, {}]
              ]
            ]
          },
          {
            "class_name": "Conv2D",
            "config": {
              "name": "Block35_2_Conv2d_1x1",
              "trainable": true,
              "dtype": "float32",
              "filters": 256,
              "kernel_size": [1, 1],
              "strides": [1, 1],
              "padding": "same",
              "data_format": "channels_last",
              "dilation_rate": [1, 1],
              "groups": 1,
              "activation": "linear",
              "use_bias": true,
              "kernel_initializer": {
                "class_name": "GlorotUniform",
                "config": { "seed": null }
              },
              "bias_initializer": { "class_name": "Zeros", "config": {} },
              "kernel_regularizer": null,
              "bias_regularizer": null,
              "activity_regularizer": null,
              "kernel_constraint": null,
              "bias_constraint": null
            },
            "name": "Block35_2_Conv2d_1x1",
            "inbound_nodes": [[["Block35_2_Concatenate", 0, 0, {}]]]
          },
          {
            "class_name": "Lambda",
            "config": {
              "name": "lambda_127",
              "trainable": true,
              "dtype": "float32",
              "function": [
                "4wIAAAAAAAAAAgAAAAIAAABDAAAAcwgAAAB8AHwBFABTACkBTqkAKQLaAXjaBXNjYWxlcgEAAABy\nAQAAAPofPGlweXRob24taW5wdXQtMTAtODZmMzlkNDUwYjkwPtoHc2NhbGluZwEAAABzAgAAAAAB\n",
                null,
                null
              ],
              "function_type": "lambda",
              "module": "__main__",
              "output_shape": [17, 17, 256],
              "output_shape_type": "raw",
              "output_shape_module": null,
              "arguments": { "scale": 0.17 }
            },
            "name": "lambda_127",
            "inbound_nodes": [[["Block35_2_Conv2d_1x1", 0, 0, {}]]]
          },
          {
            "class_name": "Add",
            "config": {
              "name": "add_127",
              "trainable": true,
              "dtype": "float32"
            },
            "name": "add_127",
            "inbound_nodes": [
              [
                ["Block35_1_Activation", 0, 0, {}],
                ["lambda_127", 0, 0, {}]
              ]
            ]
          },
          {
            "class_name": "Activation",
            "config": {
              "name": "Block35_2_Activation",
              "trainable": true,
              "dtype": "float32",
              "activation": "relu"
            },
            "name": "Block35_2_Activation",
            "inbound_nodes": [[["add_127", 0, 0, {}]]]
          },
          {
            "class_name": "Conv2D",
            "config": {
              "name": "Block35_3_Branch_2_Conv2d_0a_1x1",
              "trainable": true,
              "dtype": "float32",
              "filters": 32,
              "kernel_size": [1, 1],
              "strides": [1, 1],
              "padding": "same",
              "data_format": "channels_last",
              "dilation_rate": [1, 1],
              "groups": 1,
              "activation": "linear",
              "use_bias": false,
              "kernel_initializer": {
                "class_name": "GlorotUniform",
                "config": { "seed": null }
              },
              "bias_initializer": { "class_name": "Zeros", "config": {} },
              "kernel_regularizer": null,
              "bias_regularizer": null,
              "activity_regularizer": null,
              "kernel_constraint": null,
              "bias_constraint": null
            },
            "name": "Block35_3_Branch_2_Conv2d_0a_1x1",
            "inbound_nodes": [[["Block35_2_Activation", 0, 0, {}]]]
          },
          {
            "class_name": "BatchNormalization",
            "config": {
              "name": "Block35_3_Branch_2_Conv2d_0a_1x1_BatchNorm",
              "trainable": true,
              "dtype": "float32",
              "axis": [3],
              "momentum": 0.995,
              "epsilon": 0.001,
              "center": true,
              "scale": false,
              "beta_initializer": { "class_name": "Zeros", "config": {} },
              "gamma_initializer": { "class_name": "Ones", "config": {} },
              "moving_mean_initializer": {
                "class_name": "Zeros",
                "config": {}
              },
              "moving_variance_initializer": {
                "class_name": "Ones",
                "config": {}
              },
              "beta_regularizer": null,
              "gamma_regularizer": null,
              "beta_constraint": null,
              "gamma_constraint": null
            },
            "name": "Block35_3_Branch_2_Conv2d_0a_1x1_BatchNorm",
            "inbound_nodes": [[["Block35_3_Branch_2_Conv2d_0a_1x1", 0, 0, {}]]]
          },
          {
            "class_name": "Activation",
            "config": {
              "name": "Block35_3_Branch_2_Conv2d_0a_1x1_Activation",
              "trainable": true,
              "dtype": "float32",
              "activation": "relu"
            },
            "name": "Block35_3_Branch_2_Conv2d_0a_1x1_Activation",
            "inbound_nodes": [
              [["Block35_3_Branch_2_Conv2d_0a_1x1_BatchNorm", 0, 0, {}]]
            ]
          },
          {
            "class_name": "Conv2D",
            "config": {
              "name": "Block35_3_Branch_1_Conv2d_0a_1x1",
              "trainable": true,
              "dtype": "float32",
              "filters": 32,
              "kernel_size": [1, 1],
              "strides": [1, 1],
              "padding": "same",
              "data_format": "channels_last",
              "dilation_rate": [1, 1],
              "groups": 1,
              "activation": "linear",
              "use_bias": false,
              "kernel_initializer": {
                "class_name": "GlorotUniform",
                "config": { "seed": null }
              },
              "bias_initializer": { "class_name": "Zeros", "config": {} },
              "kernel_regularizer": null,
              "bias_regularizer": null,
              "activity_regularizer": null,
              "kernel_constraint": null,
              "bias_constraint": null
            },
            "name": "Block35_3_Branch_1_Conv2d_0a_1x1",
            "inbound_nodes": [[["Block35_2_Activation", 0, 0, {}]]]
          },
          {
            "class_name": "Conv2D",
            "config": {
              "name": "Block35_3_Branch_2_Conv2d_0b_3x3",
              "trainable": true,
              "dtype": "float32",
              "filters": 32,
              "kernel_size": [3, 3],
              "strides": [1, 1],
              "padding": "same",
              "data_format": "channels_last",
              "dilation_rate": [1, 1],
              "groups": 1,
              "activation": "linear",
              "use_bias": false,
              "kernel_initializer": {
                "class_name": "GlorotUniform",
                "config": { "seed": null }
              },
              "bias_initializer": { "class_name": "Zeros", "config": {} },
              "kernel_regularizer": null,
              "bias_regularizer": null,
              "activity_regularizer": null,
              "kernel_constraint": null,
              "bias_constraint": null
            },
            "name": "Block35_3_Branch_2_Conv2d_0b_3x3",
            "inbound_nodes": [
              [["Block35_3_Branch_2_Conv2d_0a_1x1_Activation", 0, 0, {}]]
            ]
          },
          {
            "class_name": "BatchNormalization",
            "config": {
              "name": "Block35_3_Branch_1_Conv2d_0a_1x1_BatchNorm",
              "trainable": true,
              "dtype": "float32",
              "axis": [3],
              "momentum": 0.995,
              "epsilon": 0.001,
              "center": true,
              "scale": false,
              "beta_initializer": { "class_name": "Zeros", "config": {} },
              "gamma_initializer": { "class_name": "Ones", "config": {} },
              "moving_mean_initializer": {
                "class_name": "Zeros",
                "config": {}
              },
              "moving_variance_initializer": {
                "class_name": "Ones",
                "config": {}
              },
              "beta_regularizer": null,
              "gamma_regularizer": null,
              "beta_constraint": null,
              "gamma_constraint": null
            },
            "name": "Block35_3_Branch_1_Conv2d_0a_1x1_BatchNorm",
            "inbound_nodes": [[["Block35_3_Branch_1_Conv2d_0a_1x1", 0, 0, {}]]]
          },
          {
            "class_name": "BatchNormalization",
            "config": {
              "name": "Block35_3_Branch_2_Conv2d_0b_3x3_BatchNorm",
              "trainable": true,
              "dtype": "float32",
              "axis": [3],
              "momentum": 0.995,
              "epsilon": 0.001,
              "center": true,
              "scale": false,
              "beta_initializer": { "class_name": "Zeros", "config": {} },
              "gamma_initializer": { "class_name": "Ones", "config": {} },
              "moving_mean_initializer": {
                "class_name": "Zeros",
                "config": {}
              },
              "moving_variance_initializer": {
                "class_name": "Ones",
                "config": {}
              },
              "beta_regularizer": null,
              "gamma_regularizer": null,
              "beta_constraint": null,
              "gamma_constraint": null
            },
            "name": "Block35_3_Branch_2_Conv2d_0b_3x3_BatchNorm",
            "inbound_nodes": [[["Block35_3_Branch_2_Conv2d_0b_3x3", 0, 0, {}]]]
          },
          {
            "class_name": "Activation",
            "config": {
              "name": "Block35_3_Branch_1_Conv2d_0a_1x1_Activation",
              "trainable": true,
              "dtype": "float32",
              "activation": "relu"
            },
            "name": "Block35_3_Branch_1_Conv2d_0a_1x1_Activation",
            "inbound_nodes": [
              [["Block35_3_Branch_1_Conv2d_0a_1x1_BatchNorm", 0, 0, {}]]
            ]
          },
          {
            "class_name": "Activation",
            "config": {
              "name": "Block35_3_Branch_2_Conv2d_0b_3x3_Activation",
              "trainable": true,
              "dtype": "float32",
              "activation": "relu"
            },
            "name": "Block35_3_Branch_2_Conv2d_0b_3x3_Activation",
            "inbound_nodes": [
              [["Block35_3_Branch_2_Conv2d_0b_3x3_BatchNorm", 0, 0, {}]]
            ]
          },
          {
            "class_name": "Conv2D",
            "config": {
              "name": "Block35_3_Branch_0_Conv2d_1x1",
              "trainable": true,
              "dtype": "float32",
              "filters": 32,
              "kernel_size": [1, 1],
              "strides": [1, 1],
              "padding": "same",
              "data_format": "channels_last",
              "dilation_rate": [1, 1],
              "groups": 1,
              "activation": "linear",
              "use_bias": false,
              "kernel_initializer": {
                "class_name": "GlorotUniform",
                "config": { "seed": null }
              },
              "bias_initializer": { "class_name": "Zeros", "config": {} },
              "kernel_regularizer": null,
              "bias_regularizer": null,
              "activity_regularizer": null,
              "kernel_constraint": null,
              "bias_constraint": null
            },
            "name": "Block35_3_Branch_0_Conv2d_1x1",
            "inbound_nodes": [[["Block35_2_Activation", 0, 0, {}]]]
          },
          {
            "class_name": "Conv2D",
            "config": {
              "name": "Block35_3_Branch_1_Conv2d_0b_3x3",
              "trainable": true,
              "dtype": "float32",
              "filters": 32,
              "kernel_size": [3, 3],
              "strides": [1, 1],
              "padding": "same",
              "data_format": "channels_last",
              "dilation_rate": [1, 1],
              "groups": 1,
              "activation": "linear",
              "use_bias": false,
              "kernel_initializer": {
                "class_name": "GlorotUniform",
                "config": { "seed": null }
              },
              "bias_initializer": { "class_name": "Zeros", "config": {} },
              "kernel_regularizer": null,
              "bias_regularizer": null,
              "activity_regularizer": null,
              "kernel_constraint": null,
              "bias_constraint": null
            },
            "name": "Block35_3_Branch_1_Conv2d_0b_3x3",
            "inbound_nodes": [
              [["Block35_3_Branch_1_Conv2d_0a_1x1_Activation", 0, 0, {}]]
            ]
          },
          {
            "class_name": "Conv2D",
            "config": {
              "name": "Block35_3_Branch_2_Conv2d_0c_3x3",
              "trainable": true,
              "dtype": "float32",
              "filters": 32,
              "kernel_size": [3, 3],
              "strides": [1, 1],
              "padding": "same",
              "data_format": "channels_last",
              "dilation_rate": [1, 1],
              "groups": 1,
              "activation": "linear",
              "use_bias": false,
              "kernel_initializer": {
                "class_name": "GlorotUniform",
                "config": { "seed": null }
              },
              "bias_initializer": { "class_name": "Zeros", "config": {} },
              "kernel_regularizer": null,
              "bias_regularizer": null,
              "activity_regularizer": null,
              "kernel_constraint": null,
              "bias_constraint": null
            },
            "name": "Block35_3_Branch_2_Conv2d_0c_3x3",
            "inbound_nodes": [
              [["Block35_3_Branch_2_Conv2d_0b_3x3_Activation", 0, 0, {}]]
            ]
          },
          {
            "class_name": "BatchNormalization",
            "config": {
              "name": "Block35_3_Branch_0_Conv2d_1x1_BatchNorm",
              "trainable": true,
              "dtype": "float32",
              "axis": [3],
              "momentum": 0.995,
              "epsilon": 0.001,
              "center": true,
              "scale": false,
              "beta_initializer": { "class_name": "Zeros", "config": {} },
              "gamma_initializer": { "class_name": "Ones", "config": {} },
              "moving_mean_initializer": {
                "class_name": "Zeros",
                "config": {}
              },
              "moving_variance_initializer": {
                "class_name": "Ones",
                "config": {}
              },
              "beta_regularizer": null,
              "gamma_regularizer": null,
              "beta_constraint": null,
              "gamma_constraint": null
            },
            "name": "Block35_3_Branch_0_Conv2d_1x1_BatchNorm",
            "inbound_nodes": [[["Block35_3_Branch_0_Conv2d_1x1", 0, 0, {}]]]
          },
          {
            "class_name": "BatchNormalization",
            "config": {
              "name": "Block35_3_Branch_1_Conv2d_0b_3x3_BatchNorm",
              "trainable": true,
              "dtype": "float32",
              "axis": [3],
              "momentum": 0.995,
              "epsilon": 0.001,
              "center": true,
              "scale": false,
              "beta_initializer": { "class_name": "Zeros", "config": {} },
              "gamma_initializer": { "class_name": "Ones", "config": {} },
              "moving_mean_initializer": {
                "class_name": "Zeros",
                "config": {}
              },
              "moving_variance_initializer": {
                "class_name": "Ones",
                "config": {}
              },
              "beta_regularizer": null,
              "gamma_regularizer": null,
              "beta_constraint": null,
              "gamma_constraint": null
            },
            "name": "Block35_3_Branch_1_Conv2d_0b_3x3_BatchNorm",
            "inbound_nodes": [[["Block35_3_Branch_1_Conv2d_0b_3x3", 0, 0, {}]]]
          },
          {
            "class_name": "BatchNormalization",
            "config": {
              "name": "Block35_3_Branch_2_Conv2d_0c_3x3_BatchNorm",
              "trainable": true,
              "dtype": "float32",
              "axis": [3],
              "momentum": 0.995,
              "epsilon": 0.001,
              "center": true,
              "scale": false,
              "beta_initializer": { "class_name": "Zeros", "config": {} },
              "gamma_initializer": { "class_name": "Ones", "config": {} },
              "moving_mean_initializer": {
                "class_name": "Zeros",
                "config": {}
              },
              "moving_variance_initializer": {
                "class_name": "Ones",
                "config": {}
              },
              "beta_regularizer": null,
              "gamma_regularizer": null,
              "beta_constraint": null,
              "gamma_constraint": null
            },
            "name": "Block35_3_Branch_2_Conv2d_0c_3x3_BatchNorm",
            "inbound_nodes": [[["Block35_3_Branch_2_Conv2d_0c_3x3", 0, 0, {}]]]
          },
          {
            "class_name": "Activation",
            "config": {
              "name": "Block35_3_Branch_0_Conv2d_1x1_Activation",
              "trainable": true,
              "dtype": "float32",
              "activation": "relu"
            },
            "name": "Block35_3_Branch_0_Conv2d_1x1_Activation",
            "inbound_nodes": [
              [["Block35_3_Branch_0_Conv2d_1x1_BatchNorm", 0, 0, {}]]
            ]
          },
          {
            "class_name": "Activation",
            "config": {
              "name": "Block35_3_Branch_1_Conv2d_0b_3x3_Activation",
              "trainable": true,
              "dtype": "float32",
              "activation": "relu"
            },
            "name": "Block35_3_Branch_1_Conv2d_0b_3x3_Activation",
            "inbound_nodes": [
              [["Block35_3_Branch_1_Conv2d_0b_3x3_BatchNorm", 0, 0, {}]]
            ]
          },
          {
            "class_name": "Activation",
            "config": {
              "name": "Block35_3_Branch_2_Conv2d_0c_3x3_Activation",
              "trainable": true,
              "dtype": "float32",
              "activation": "relu"
            },
            "name": "Block35_3_Branch_2_Conv2d_0c_3x3_Activation",
            "inbound_nodes": [
              [["Block35_3_Branch_2_Conv2d_0c_3x3_BatchNorm", 0, 0, {}]]
            ]
          },
          {
            "class_name": "Concatenate",
            "config": {
              "name": "Block35_3_Concatenate",
              "trainable": true,
              "dtype": "float32",
              "axis": 3
            },
            "name": "Block35_3_Concatenate",
            "inbound_nodes": [
              [
                ["Block35_3_Branch_0_Conv2d_1x1_Activation", 0, 0, {}],
                ["Block35_3_Branch_1_Conv2d_0b_3x3_Activation", 0, 0, {}],
                ["Block35_3_Branch_2_Conv2d_0c_3x3_Activation", 0, 0, {}]
              ]
            ]
          },
          {
            "class_name": "Conv2D",
            "config": {
              "name": "Block35_3_Conv2d_1x1",
              "trainable": true,
              "dtype": "float32",
              "filters": 256,
              "kernel_size": [1, 1],
              "strides": [1, 1],
              "padding": "same",
              "data_format": "channels_last",
              "dilation_rate": [1, 1],
              "groups": 1,
              "activation": "linear",
              "use_bias": true,
              "kernel_initializer": {
                "class_name": "GlorotUniform",
                "config": { "seed": null }
              },
              "bias_initializer": { "class_name": "Zeros", "config": {} },
              "kernel_regularizer": null,
              "bias_regularizer": null,
              "activity_regularizer": null,
              "kernel_constraint": null,
              "bias_constraint": null
            },
            "name": "Block35_3_Conv2d_1x1",
            "inbound_nodes": [[["Block35_3_Concatenate", 0, 0, {}]]]
          },
          {
            "class_name": "Lambda",
            "config": {
              "name": "lambda_128",
              "trainable": true,
              "dtype": "float32",
              "function": [
                "4wIAAAAAAAAAAgAAAAIAAABDAAAAcwgAAAB8AHwBFABTACkBTqkAKQLaAXjaBXNjYWxlcgEAAABy\nAQAAAPofPGlweXRob24taW5wdXQtMTAtODZmMzlkNDUwYjkwPtoHc2NhbGluZwEAAABzAgAAAAAB\n",
                null,
                null
              ],
              "function_type": "lambda",
              "module": "__main__",
              "output_shape": [17, 17, 256],
              "output_shape_type": "raw",
              "output_shape_module": null,
              "arguments": { "scale": 0.17 }
            },
            "name": "lambda_128",
            "inbound_nodes": [[["Block35_3_Conv2d_1x1", 0, 0, {}]]]
          },
          {
            "class_name": "Add",
            "config": {
              "name": "add_128",
              "trainable": true,
              "dtype": "float32"
            },
            "name": "add_128",
            "inbound_nodes": [
              [
                ["Block35_2_Activation", 0, 0, {}],
                ["lambda_128", 0, 0, {}]
              ]
            ]
          },
          {
            "class_name": "Activation",
            "config": {
              "name": "Block35_3_Activation",
              "trainable": true,
              "dtype": "float32",
              "activation": "relu"
            },
            "name": "Block35_3_Activation",
            "inbound_nodes": [[["add_128", 0, 0, {}]]]
          },
          {
            "class_name": "Conv2D",
            "config": {
              "name": "Block35_4_Branch_2_Conv2d_0a_1x1",
              "trainable": true,
              "dtype": "float32",
              "filters": 32,
              "kernel_size": [1, 1],
              "strides": [1, 1],
              "padding": "same",
              "data_format": "channels_last",
              "dilation_rate": [1, 1],
              "groups": 1,
              "activation": "linear",
              "use_bias": false,
              "kernel_initializer": {
                "class_name": "GlorotUniform",
                "config": { "seed": null }
              },
              "bias_initializer": { "class_name": "Zeros", "config": {} },
              "kernel_regularizer": null,
              "bias_regularizer": null,
              "activity_regularizer": null,
              "kernel_constraint": null,
              "bias_constraint": null
            },
            "name": "Block35_4_Branch_2_Conv2d_0a_1x1",
            "inbound_nodes": [[["Block35_3_Activation", 0, 0, {}]]]
          },
          {
            "class_name": "BatchNormalization",
            "config": {
              "name": "Block35_4_Branch_2_Conv2d_0a_1x1_BatchNorm",
              "trainable": true,
              "dtype": "float32",
              "axis": [3],
              "momentum": 0.995,
              "epsilon": 0.001,
              "center": true,
              "scale": false,
              "beta_initializer": { "class_name": "Zeros", "config": {} },
              "gamma_initializer": { "class_name": "Ones", "config": {} },
              "moving_mean_initializer": {
                "class_name": "Zeros",
                "config": {}
              },
              "moving_variance_initializer": {
                "class_name": "Ones",
                "config": {}
              },
              "beta_regularizer": null,
              "gamma_regularizer": null,
              "beta_constraint": null,
              "gamma_constraint": null
            },
            "name": "Block35_4_Branch_2_Conv2d_0a_1x1_BatchNorm",
            "inbound_nodes": [[["Block35_4_Branch_2_Conv2d_0a_1x1", 0, 0, {}]]]
          },
          {
            "class_name": "Activation",
            "config": {
              "name": "Block35_4_Branch_2_Conv2d_0a_1x1_Activation",
              "trainable": true,
              "dtype": "float32",
              "activation": "relu"
            },
            "name": "Block35_4_Branch_2_Conv2d_0a_1x1_Activation",
            "inbound_nodes": [
              [["Block35_4_Branch_2_Conv2d_0a_1x1_BatchNorm", 0, 0, {}]]
            ]
          },
          {
            "class_name": "Conv2D",
            "config": {
              "name": "Block35_4_Branch_1_Conv2d_0a_1x1",
              "trainable": true,
              "dtype": "float32",
              "filters": 32,
              "kernel_size": [1, 1],
              "strides": [1, 1],
              "padding": "same",
              "data_format": "channels_last",
              "dilation_rate": [1, 1],
              "groups": 1,
              "activation": "linear",
              "use_bias": false,
              "kernel_initializer": {
                "class_name": "GlorotUniform",
                "config": { "seed": null }
              },
              "bias_initializer": { "class_name": "Zeros", "config": {} },
              "kernel_regularizer": null,
              "bias_regularizer": null,
              "activity_regularizer": null,
              "kernel_constraint": null,
              "bias_constraint": null
            },
            "name": "Block35_4_Branch_1_Conv2d_0a_1x1",
            "inbound_nodes": [[["Block35_3_Activation", 0, 0, {}]]]
          },
          {
            "class_name": "Conv2D",
            "config": {
              "name": "Block35_4_Branch_2_Conv2d_0b_3x3",
              "trainable": true,
              "dtype": "float32",
              "filters": 32,
              "kernel_size": [3, 3],
              "strides": [1, 1],
              "padding": "same",
              "data_format": "channels_last",
              "dilation_rate": [1, 1],
              "groups": 1,
              "activation": "linear",
              "use_bias": false,
              "kernel_initializer": {
                "class_name": "GlorotUniform",
                "config": { "seed": null }
              },
              "bias_initializer": { "class_name": "Zeros", "config": {} },
              "kernel_regularizer": null,
              "bias_regularizer": null,
              "activity_regularizer": null,
              "kernel_constraint": null,
              "bias_constraint": null
            },
            "name": "Block35_4_Branch_2_Conv2d_0b_3x3",
            "inbound_nodes": [
              [["Block35_4_Branch_2_Conv2d_0a_1x1_Activation", 0, 0, {}]]
            ]
          },
          {
            "class_name": "BatchNormalization",
            "config": {
              "name": "Block35_4_Branch_1_Conv2d_0a_1x1_BatchNorm",
              "trainable": true,
              "dtype": "float32",
              "axis": [3],
              "momentum": 0.995,
              "epsilon": 0.001,
              "center": true,
              "scale": false,
              "beta_initializer": { "class_name": "Zeros", "config": {} },
              "gamma_initializer": { "class_name": "Ones", "config": {} },
              "moving_mean_initializer": {
                "class_name": "Zeros",
                "config": {}
              },
              "moving_variance_initializer": {
                "class_name": "Ones",
                "config": {}
              },
              "beta_regularizer": null,
              "gamma_regularizer": null,
              "beta_constraint": null,
              "gamma_constraint": null
            },
            "name": "Block35_4_Branch_1_Conv2d_0a_1x1_BatchNorm",
            "inbound_nodes": [[["Block35_4_Branch_1_Conv2d_0a_1x1", 0, 0, {}]]]
          },
          {
            "class_name": "BatchNormalization",
            "config": {
              "name": "Block35_4_Branch_2_Conv2d_0b_3x3_BatchNorm",
              "trainable": true,
              "dtype": "float32",
              "axis": [3],
              "momentum": 0.995,
              "epsilon": 0.001,
              "center": true,
              "scale": false,
              "beta_initializer": { "class_name": "Zeros", "config": {} },
              "gamma_initializer": { "class_name": "Ones", "config": {} },
              "moving_mean_initializer": {
                "class_name": "Zeros",
                "config": {}
              },
              "moving_variance_initializer": {
                "class_name": "Ones",
                "config": {}
              },
              "beta_regularizer": null,
              "gamma_regularizer": null,
              "beta_constraint": null,
              "gamma_constraint": null
            },
            "name": "Block35_4_Branch_2_Conv2d_0b_3x3_BatchNorm",
            "inbound_nodes": [[["Block35_4_Branch_2_Conv2d_0b_3x3", 0, 0, {}]]]
          },
          {
            "class_name": "Activation",
            "config": {
              "name": "Block35_4_Branch_1_Conv2d_0a_1x1_Activation",
              "trainable": true,
              "dtype": "float32",
              "activation": "relu"
            },
            "name": "Block35_4_Branch_1_Conv2d_0a_1x1_Activation",
            "inbound_nodes": [
              [["Block35_4_Branch_1_Conv2d_0a_1x1_BatchNorm", 0, 0, {}]]
            ]
          },
          {
            "class_name": "Activation",
            "config": {
              "name": "Block35_4_Branch_2_Conv2d_0b_3x3_Activation",
              "trainable": true,
              "dtype": "float32",
              "activation": "relu"
            },
            "name": "Block35_4_Branch_2_Conv2d_0b_3x3_Activation",
            "inbound_nodes": [
              [["Block35_4_Branch_2_Conv2d_0b_3x3_BatchNorm", 0, 0, {}]]
            ]
          },
          {
            "class_name": "Conv2D",
            "config": {
              "name": "Block35_4_Branch_0_Conv2d_1x1",
              "trainable": true,
              "dtype": "float32",
              "filters": 32,
              "kernel_size": [1, 1],
              "strides": [1, 1],
              "padding": "same",
              "data_format": "channels_last",
              "dilation_rate": [1, 1],
              "groups": 1,
              "activation": "linear",
              "use_bias": false,
              "kernel_initializer": {
                "class_name": "GlorotUniform",
                "config": { "seed": null }
              },
              "bias_initializer": { "class_name": "Zeros", "config": {} },
              "kernel_regularizer": null,
              "bias_regularizer": null,
              "activity_regularizer": null,
              "kernel_constraint": null,
              "bias_constraint": null
            },
            "name": "Block35_4_Branch_0_Conv2d_1x1",
            "inbound_nodes": [[["Block35_3_Activation", 0, 0, {}]]]
          },
          {
            "class_name": "Conv2D",
            "config": {
              "name": "Block35_4_Branch_1_Conv2d_0b_3x3",
              "trainable": true,
              "dtype": "float32",
              "filters": 32,
              "kernel_size": [3, 3],
              "strides": [1, 1],
              "padding": "same",
              "data_format": "channels_last",
              "dilation_rate": [1, 1],
              "groups": 1,
              "activation": "linear",
              "use_bias": false,
              "kernel_initializer": {
                "class_name": "GlorotUniform",
                "config": { "seed": null }
              },
              "bias_initializer": { "class_name": "Zeros", "config": {} },
              "kernel_regularizer": null,
              "bias_regularizer": null,
              "activity_regularizer": null,
              "kernel_constraint": null,
              "bias_constraint": null
            },
            "name": "Block35_4_Branch_1_Conv2d_0b_3x3",
            "inbound_nodes": [
              [["Block35_4_Branch_1_Conv2d_0a_1x1_Activation", 0, 0, {}]]
            ]
          },
          {
            "class_name": "Conv2D",
            "config": {
              "name": "Block35_4_Branch_2_Conv2d_0c_3x3",
              "trainable": true,
              "dtype": "float32",
              "filters": 32,
              "kernel_size": [3, 3],
              "strides": [1, 1],
              "padding": "same",
              "data_format": "channels_last",
              "dilation_rate": [1, 1],
              "groups": 1,
              "activation": "linear",
              "use_bias": false,
              "kernel_initializer": {
                "class_name": "GlorotUniform",
                "config": { "seed": null }
              },
              "bias_initializer": { "class_name": "Zeros", "config": {} },
              "kernel_regularizer": null,
              "bias_regularizer": null,
              "activity_regularizer": null,
              "kernel_constraint": null,
              "bias_constraint": null
            },
            "name": "Block35_4_Branch_2_Conv2d_0c_3x3",
            "inbound_nodes": [
              [["Block35_4_Branch_2_Conv2d_0b_3x3_Activation", 0, 0, {}]]
            ]
          },
          {
            "class_name": "BatchNormalization",
            "config": {
              "name": "Block35_4_Branch_0_Conv2d_1x1_BatchNorm",
              "trainable": true,
              "dtype": "float32",
              "axis": [3],
              "momentum": 0.995,
              "epsilon": 0.001,
              "center": true,
              "scale": false,
              "beta_initializer": { "class_name": "Zeros", "config": {} },
              "gamma_initializer": { "class_name": "Ones", "config": {} },
              "moving_mean_initializer": {
                "class_name": "Zeros",
                "config": {}
              },
              "moving_variance_initializer": {
                "class_name": "Ones",
                "config": {}
              },
              "beta_regularizer": null,
              "gamma_regularizer": null,
              "beta_constraint": null,
              "gamma_constraint": null
            },
            "name": "Block35_4_Branch_0_Conv2d_1x1_BatchNorm",
            "inbound_nodes": [[["Block35_4_Branch_0_Conv2d_1x1", 0, 0, {}]]]
          },
          {
            "class_name": "BatchNormalization",
            "config": {
              "name": "Block35_4_Branch_1_Conv2d_0b_3x3_BatchNorm",
              "trainable": true,
              "dtype": "float32",
              "axis": [3],
              "momentum": 0.995,
              "epsilon": 0.001,
              "center": true,
              "scale": false,
              "beta_initializer": { "class_name": "Zeros", "config": {} },
              "gamma_initializer": { "class_name": "Ones", "config": {} },
              "moving_mean_initializer": {
                "class_name": "Zeros",
                "config": {}
              },
              "moving_variance_initializer": {
                "class_name": "Ones",
                "config": {}
              },
              "beta_regularizer": null,
              "gamma_regularizer": null,
              "beta_constraint": null,
              "gamma_constraint": null
            },
            "name": "Block35_4_Branch_1_Conv2d_0b_3x3_BatchNorm",
            "inbound_nodes": [[["Block35_4_Branch_1_Conv2d_0b_3x3", 0, 0, {}]]]
          },
          {
            "class_name": "BatchNormalization",
            "config": {
              "name": "Block35_4_Branch_2_Conv2d_0c_3x3_BatchNorm",
              "trainable": true,
              "dtype": "float32",
              "axis": [3],
              "momentum": 0.995,
              "epsilon": 0.001,
              "center": true,
              "scale": false,
              "beta_initializer": { "class_name": "Zeros", "config": {} },
              "gamma_initializer": { "class_name": "Ones", "config": {} },
              "moving_mean_initializer": {
                "class_name": "Zeros",
                "config": {}
              },
              "moving_variance_initializer": {
                "class_name": "Ones",
                "config": {}
              },
              "beta_regularizer": null,
              "gamma_regularizer": null,
              "beta_constraint": null,
              "gamma_constraint": null
            },
            "name": "Block35_4_Branch_2_Conv2d_0c_3x3_BatchNorm",
            "inbound_nodes": [[["Block35_4_Branch_2_Conv2d_0c_3x3", 0, 0, {}]]]
          },
          {
            "class_name": "Activation",
            "config": {
              "name": "Block35_4_Branch_0_Conv2d_1x1_Activation",
              "trainable": true,
              "dtype": "float32",
              "activation": "relu"
            },
            "name": "Block35_4_Branch_0_Conv2d_1x1_Activation",
            "inbound_nodes": [
              [["Block35_4_Branch_0_Conv2d_1x1_BatchNorm", 0, 0, {}]]
            ]
          },
          {
            "class_name": "Activation",
            "config": {
              "name": "Block35_4_Branch_1_Conv2d_0b_3x3_Activation",
              "trainable": true,
              "dtype": "float32",
              "activation": "relu"
            },
            "name": "Block35_4_Branch_1_Conv2d_0b_3x3_Activation",
            "inbound_nodes": [
              [["Block35_4_Branch_1_Conv2d_0b_3x3_BatchNorm", 0, 0, {}]]
            ]
          },
          {
            "class_name": "Activation",
            "config": {
              "name": "Block35_4_Branch_2_Conv2d_0c_3x3_Activation",
              "trainable": true,
              "dtype": "float32",
              "activation": "relu"
            },
            "name": "Block35_4_Branch_2_Conv2d_0c_3x3_Activation",
            "inbound_nodes": [
              [["Block35_4_Branch_2_Conv2d_0c_3x3_BatchNorm", 0, 0, {}]]
            ]
          },
          {
            "class_name": "Concatenate",
            "config": {
              "name": "Block35_4_Concatenate",
              "trainable": true,
              "dtype": "float32",
              "axis": 3
            },
            "name": "Block35_4_Concatenate",
            "inbound_nodes": [
              [
                ["Block35_4_Branch_0_Conv2d_1x1_Activation", 0, 0, {}],
                ["Block35_4_Branch_1_Conv2d_0b_3x3_Activation", 0, 0, {}],
                ["Block35_4_Branch_2_Conv2d_0c_3x3_Activation", 0, 0, {}]
              ]
            ]
          },
          {
            "class_name": "Conv2D",
            "config": {
              "name": "Block35_4_Conv2d_1x1",
              "trainable": true,
              "dtype": "float32",
              "filters": 256,
              "kernel_size": [1, 1],
              "strides": [1, 1],
              "padding": "same",
              "data_format": "channels_last",
              "dilation_rate": [1, 1],
              "groups": 1,
              "activation": "linear",
              "use_bias": true,
              "kernel_initializer": {
                "class_name": "GlorotUniform",
                "config": { "seed": null }
              },
              "bias_initializer": { "class_name": "Zeros", "config": {} },
              "kernel_regularizer": null,
              "bias_regularizer": null,
              "activity_regularizer": null,
              "kernel_constraint": null,
              "bias_constraint": null
            },
            "name": "Block35_4_Conv2d_1x1",
            "inbound_nodes": [[["Block35_4_Concatenate", 0, 0, {}]]]
          },
          {
            "class_name": "Lambda",
            "config": {
              "name": "lambda_129",
              "trainable": true,
              "dtype": "float32",
              "function": [
                "4wIAAAAAAAAAAgAAAAIAAABDAAAAcwgAAAB8AHwBFABTACkBTqkAKQLaAXjaBXNjYWxlcgEAAABy\nAQAAAPofPGlweXRob24taW5wdXQtMTAtODZmMzlkNDUwYjkwPtoHc2NhbGluZwEAAABzAgAAAAAB\n",
                null,
                null
              ],
              "function_type": "lambda",
              "module": "__main__",
              "output_shape": [17, 17, 256],
              "output_shape_type": "raw",
              "output_shape_module": null,
              "arguments": { "scale": 0.17 }
            },
            "name": "lambda_129",
            "inbound_nodes": [[["Block35_4_Conv2d_1x1", 0, 0, {}]]]
          },
          {
            "class_name": "Add",
            "config": {
              "name": "add_129",
              "trainable": true,
              "dtype": "float32"
            },
            "name": "add_129",
            "inbound_nodes": [
              [
                ["Block35_3_Activation", 0, 0, {}],
                ["lambda_129", 0, 0, {}]
              ]
            ]
          },
          {
            "class_name": "Activation",
            "config": {
              "name": "Block35_4_Activation",
              "trainable": true,
              "dtype": "float32",
              "activation": "relu"
            },
            "name": "Block35_4_Activation",
            "inbound_nodes": [[["add_129", 0, 0, {}]]]
          },
          {
            "class_name": "Conv2D",
            "config": {
              "name": "Block35_5_Branch_2_Conv2d_0a_1x1",
              "trainable": true,
              "dtype": "float32",
              "filters": 32,
              "kernel_size": [1, 1],
              "strides": [1, 1],
              "padding": "same",
              "data_format": "channels_last",
              "dilation_rate": [1, 1],
              "groups": 1,
              "activation": "linear",
              "use_bias": false,
              "kernel_initializer": {
                "class_name": "GlorotUniform",
                "config": { "seed": null }
              },
              "bias_initializer": { "class_name": "Zeros", "config": {} },
              "kernel_regularizer": null,
              "bias_regularizer": null,
              "activity_regularizer": null,
              "kernel_constraint": null,
              "bias_constraint": null
            },
            "name": "Block35_5_Branch_2_Conv2d_0a_1x1",
            "inbound_nodes": [[["Block35_4_Activation", 0, 0, {}]]]
          },
          {
            "class_name": "BatchNormalization",
            "config": {
              "name": "Block35_5_Branch_2_Conv2d_0a_1x1_BatchNorm",
              "trainable": true,
              "dtype": "float32",
              "axis": [3],
              "momentum": 0.995,
              "epsilon": 0.001,
              "center": true,
              "scale": false,
              "beta_initializer": { "class_name": "Zeros", "config": {} },
              "gamma_initializer": { "class_name": "Ones", "config": {} },
              "moving_mean_initializer": {
                "class_name": "Zeros",
                "config": {}
              },
              "moving_variance_initializer": {
                "class_name": "Ones",
                "config": {}
              },
              "beta_regularizer": null,
              "gamma_regularizer": null,
              "beta_constraint": null,
              "gamma_constraint": null
            },
            "name": "Block35_5_Branch_2_Conv2d_0a_1x1_BatchNorm",
            "inbound_nodes": [[["Block35_5_Branch_2_Conv2d_0a_1x1", 0, 0, {}]]]
          },
          {
            "class_name": "Activation",
            "config": {
              "name": "Block35_5_Branch_2_Conv2d_0a_1x1_Activation",
              "trainable": true,
              "dtype": "float32",
              "activation": "relu"
            },
            "name": "Block35_5_Branch_2_Conv2d_0a_1x1_Activation",
            "inbound_nodes": [
              [["Block35_5_Branch_2_Conv2d_0a_1x1_BatchNorm", 0, 0, {}]]
            ]
          },
          {
            "class_name": "Conv2D",
            "config": {
              "name": "Block35_5_Branch_1_Conv2d_0a_1x1",
              "trainable": true,
              "dtype": "float32",
              "filters": 32,
              "kernel_size": [1, 1],
              "strides": [1, 1],
              "padding": "same",
              "data_format": "channels_last",
              "dilation_rate": [1, 1],
              "groups": 1,
              "activation": "linear",
              "use_bias": false,
              "kernel_initializer": {
                "class_name": "GlorotUniform",
                "config": { "seed": null }
              },
              "bias_initializer": { "class_name": "Zeros", "config": {} },
              "kernel_regularizer": null,
              "bias_regularizer": null,
              "activity_regularizer": null,
              "kernel_constraint": null,
              "bias_constraint": null
            },
            "name": "Block35_5_Branch_1_Conv2d_0a_1x1",
            "inbound_nodes": [[["Block35_4_Activation", 0, 0, {}]]]
          },
          {
            "class_name": "Conv2D",
            "config": {
              "name": "Block35_5_Branch_2_Conv2d_0b_3x3",
              "trainable": true,
              "dtype": "float32",
              "filters": 32,
              "kernel_size": [3, 3],
              "strides": [1, 1],
              "padding": "same",
              "data_format": "channels_last",
              "dilation_rate": [1, 1],
              "groups": 1,
              "activation": "linear",
              "use_bias": false,
              "kernel_initializer": {
                "class_name": "GlorotUniform",
                "config": { "seed": null }
              },
              "bias_initializer": { "class_name": "Zeros", "config": {} },
              "kernel_regularizer": null,
              "bias_regularizer": null,
              "activity_regularizer": null,
              "kernel_constraint": null,
              "bias_constraint": null
            },
            "name": "Block35_5_Branch_2_Conv2d_0b_3x3",
            "inbound_nodes": [
              [["Block35_5_Branch_2_Conv2d_0a_1x1_Activation", 0, 0, {}]]
            ]
          },
          {
            "class_name": "BatchNormalization",
            "config": {
              "name": "Block35_5_Branch_1_Conv2d_0a_1x1_BatchNorm",
              "trainable": true,
              "dtype": "float32",
              "axis": [3],
              "momentum": 0.995,
              "epsilon": 0.001,
              "center": true,
              "scale": false,
              "beta_initializer": { "class_name": "Zeros", "config": {} },
              "gamma_initializer": { "class_name": "Ones", "config": {} },
              "moving_mean_initializer": {
                "class_name": "Zeros",
                "config": {}
              },
              "moving_variance_initializer": {
                "class_name": "Ones",
                "config": {}
              },
              "beta_regularizer": null,
              "gamma_regularizer": null,
              "beta_constraint": null,
              "gamma_constraint": null
            },
            "name": "Block35_5_Branch_1_Conv2d_0a_1x1_BatchNorm",
            "inbound_nodes": [[["Block35_5_Branch_1_Conv2d_0a_1x1", 0, 0, {}]]]
          },
          {
            "class_name": "BatchNormalization",
            "config": {
              "name": "Block35_5_Branch_2_Conv2d_0b_3x3_BatchNorm",
              "trainable": true,
              "dtype": "float32",
              "axis": [3],
              "momentum": 0.995,
              "epsilon": 0.001,
              "center": true,
              "scale": false,
              "beta_initializer": { "class_name": "Zeros", "config": {} },
              "gamma_initializer": { "class_name": "Ones", "config": {} },
              "moving_mean_initializer": {
                "class_name": "Zeros",
                "config": {}
              },
              "moving_variance_initializer": {
                "class_name": "Ones",
                "config": {}
              },
              "beta_regularizer": null,
              "gamma_regularizer": null,
              "beta_constraint": null,
              "gamma_constraint": null
            },
            "name": "Block35_5_Branch_2_Conv2d_0b_3x3_BatchNorm",
            "inbound_nodes": [[["Block35_5_Branch_2_Conv2d_0b_3x3", 0, 0, {}]]]
          },
          {
            "class_name": "Activation",
            "config": {
              "name": "Block35_5_Branch_1_Conv2d_0a_1x1_Activation",
              "trainable": true,
              "dtype": "float32",
              "activation": "relu"
            },
            "name": "Block35_5_Branch_1_Conv2d_0a_1x1_Activation",
            "inbound_nodes": [
              [["Block35_5_Branch_1_Conv2d_0a_1x1_BatchNorm", 0, 0, {}]]
            ]
          },
          {
            "class_name": "Activation",
            "config": {
              "name": "Block35_5_Branch_2_Conv2d_0b_3x3_Activation",
              "trainable": true,
              "dtype": "float32",
              "activation": "relu"
            },
            "name": "Block35_5_Branch_2_Conv2d_0b_3x3_Activation",
            "inbound_nodes": [
              [["Block35_5_Branch_2_Conv2d_0b_3x3_BatchNorm", 0, 0, {}]]
            ]
          },
          {
            "class_name": "Conv2D",
            "config": {
              "name": "Block35_5_Branch_0_Conv2d_1x1",
              "trainable": true,
              "dtype": "float32",
              "filters": 32,
              "kernel_size": [1, 1],
              "strides": [1, 1],
              "padding": "same",
              "data_format": "channels_last",
              "dilation_rate": [1, 1],
              "groups": 1,
              "activation": "linear",
              "use_bias": false,
              "kernel_initializer": {
                "class_name": "GlorotUniform",
                "config": { "seed": null }
              },
              "bias_initializer": { "class_name": "Zeros", "config": {} },
              "kernel_regularizer": null,
              "bias_regularizer": null,
              "activity_regularizer": null,
              "kernel_constraint": null,
              "bias_constraint": null
            },
            "name": "Block35_5_Branch_0_Conv2d_1x1",
            "inbound_nodes": [[["Block35_4_Activation", 0, 0, {}]]]
          },
          {
            "class_name": "Conv2D",
            "config": {
              "name": "Block35_5_Branch_1_Conv2d_0b_3x3",
              "trainable": true,
              "dtype": "float32",
              "filters": 32,
              "kernel_size": [3, 3],
              "strides": [1, 1],
              "padding": "same",
              "data_format": "channels_last",
              "dilation_rate": [1, 1],
              "groups": 1,
              "activation": "linear",
              "use_bias": false,
              "kernel_initializer": {
                "class_name": "GlorotUniform",
                "config": { "seed": null }
              },
              "bias_initializer": { "class_name": "Zeros", "config": {} },
              "kernel_regularizer": null,
              "bias_regularizer": null,
              "activity_regularizer": null,
              "kernel_constraint": null,
              "bias_constraint": null
            },
            "name": "Block35_5_Branch_1_Conv2d_0b_3x3",
            "inbound_nodes": [
              [["Block35_5_Branch_1_Conv2d_0a_1x1_Activation", 0, 0, {}]]
            ]
          },
          {
            "class_name": "Conv2D",
            "config": {
              "name": "Block35_5_Branch_2_Conv2d_0c_3x3",
              "trainable": true,
              "dtype": "float32",
              "filters": 32,
              "kernel_size": [3, 3],
              "strides": [1, 1],
              "padding": "same",
              "data_format": "channels_last",
              "dilation_rate": [1, 1],
              "groups": 1,
              "activation": "linear",
              "use_bias": false,
              "kernel_initializer": {
                "class_name": "GlorotUniform",
                "config": { "seed": null }
              },
              "bias_initializer": { "class_name": "Zeros", "config": {} },
              "kernel_regularizer": null,
              "bias_regularizer": null,
              "activity_regularizer": null,
              "kernel_constraint": null,
              "bias_constraint": null
            },
            "name": "Block35_5_Branch_2_Conv2d_0c_3x3",
            "inbound_nodes": [
              [["Block35_5_Branch_2_Conv2d_0b_3x3_Activation", 0, 0, {}]]
            ]
          },
          {
            "class_name": "BatchNormalization",
            "config": {
              "name": "Block35_5_Branch_0_Conv2d_1x1_BatchNorm",
              "trainable": true,
              "dtype": "float32",
              "axis": [3],
              "momentum": 0.995,
              "epsilon": 0.001,
              "center": true,
              "scale": false,
              "beta_initializer": { "class_name": "Zeros", "config": {} },
              "gamma_initializer": { "class_name": "Ones", "config": {} },
              "moving_mean_initializer": {
                "class_name": "Zeros",
                "config": {}
              },
              "moving_variance_initializer": {
                "class_name": "Ones",
                "config": {}
              },
              "beta_regularizer": null,
              "gamma_regularizer": null,
              "beta_constraint": null,
              "gamma_constraint": null
            },
            "name": "Block35_5_Branch_0_Conv2d_1x1_BatchNorm",
            "inbound_nodes": [[["Block35_5_Branch_0_Conv2d_1x1", 0, 0, {}]]]
          },
          {
            "class_name": "BatchNormalization",
            "config": {
              "name": "Block35_5_Branch_1_Conv2d_0b_3x3_BatchNorm",
              "trainable": true,
              "dtype": "float32",
              "axis": [3],
              "momentum": 0.995,
              "epsilon": 0.001,
              "center": true,
              "scale": false,
              "beta_initializer": { "class_name": "Zeros", "config": {} },
              "gamma_initializer": { "class_name": "Ones", "config": {} },
              "moving_mean_initializer": {
                "class_name": "Zeros",
                "config": {}
              },
              "moving_variance_initializer": {
                "class_name": "Ones",
                "config": {}
              },
              "beta_regularizer": null,
              "gamma_regularizer": null,
              "beta_constraint": null,
              "gamma_constraint": null
            },
            "name": "Block35_5_Branch_1_Conv2d_0b_3x3_BatchNorm",
            "inbound_nodes": [[["Block35_5_Branch_1_Conv2d_0b_3x3", 0, 0, {}]]]
          },
          {
            "class_name": "BatchNormalization",
            "config": {
              "name": "Block35_5_Branch_2_Conv2d_0c_3x3_BatchNorm",
              "trainable": true,
              "dtype": "float32",
              "axis": [3],
              "momentum": 0.995,
              "epsilon": 0.001,
              "center": true,
              "scale": false,
              "beta_initializer": { "class_name": "Zeros", "config": {} },
              "gamma_initializer": { "class_name": "Ones", "config": {} },
              "moving_mean_initializer": {
                "class_name": "Zeros",
                "config": {}
              },
              "moving_variance_initializer": {
                "class_name": "Ones",
                "config": {}
              },
              "beta_regularizer": null,
              "gamma_regularizer": null,
              "beta_constraint": null,
              "gamma_constraint": null
            },
            "name": "Block35_5_Branch_2_Conv2d_0c_3x3_BatchNorm",
            "inbound_nodes": [[["Block35_5_Branch_2_Conv2d_0c_3x3", 0, 0, {}]]]
          },
          {
            "class_name": "Activation",
            "config": {
              "name": "Block35_5_Branch_0_Conv2d_1x1_Activation",
              "trainable": true,
              "dtype": "float32",
              "activation": "relu"
            },
            "name": "Block35_5_Branch_0_Conv2d_1x1_Activation",
            "inbound_nodes": [
              [["Block35_5_Branch_0_Conv2d_1x1_BatchNorm", 0, 0, {}]]
            ]
          },
          {
            "class_name": "Activation",
            "config": {
              "name": "Block35_5_Branch_1_Conv2d_0b_3x3_Activation",
              "trainable": true,
              "dtype": "float32",
              "activation": "relu"
            },
            "name": "Block35_5_Branch_1_Conv2d_0b_3x3_Activation",
            "inbound_nodes": [
              [["Block35_5_Branch_1_Conv2d_0b_3x3_BatchNorm", 0, 0, {}]]
            ]
          },
          {
            "class_name": "Activation",
            "config": {
              "name": "Block35_5_Branch_2_Conv2d_0c_3x3_Activation",
              "trainable": true,
              "dtype": "float32",
              "activation": "relu"
            },
            "name": "Block35_5_Branch_2_Conv2d_0c_3x3_Activation",
            "inbound_nodes": [
              [["Block35_5_Branch_2_Conv2d_0c_3x3_BatchNorm", 0, 0, {}]]
            ]
          },
          {
            "class_name": "Concatenate",
            "config": {
              "name": "Block35_5_Concatenate",
              "trainable": true,
              "dtype": "float32",
              "axis": 3
            },
            "name": "Block35_5_Concatenate",
            "inbound_nodes": [
              [
                ["Block35_5_Branch_0_Conv2d_1x1_Activation", 0, 0, {}],
                ["Block35_5_Branch_1_Conv2d_0b_3x3_Activation", 0, 0, {}],
                ["Block35_5_Branch_2_Conv2d_0c_3x3_Activation", 0, 0, {}]
              ]
            ]
          },
          {
            "class_name": "Conv2D",
            "config": {
              "name": "Block35_5_Conv2d_1x1",
              "trainable": true,
              "dtype": "float32",
              "filters": 256,
              "kernel_size": [1, 1],
              "strides": [1, 1],
              "padding": "same",
              "data_format": "channels_last",
              "dilation_rate": [1, 1],
              "groups": 1,
              "activation": "linear",
              "use_bias": true,
              "kernel_initializer": {
                "class_name": "GlorotUniform",
                "config": { "seed": null }
              },
              "bias_initializer": { "class_name": "Zeros", "config": {} },
              "kernel_regularizer": null,
              "bias_regularizer": null,
              "activity_regularizer": null,
              "kernel_constraint": null,
              "bias_constraint": null
            },
            "name": "Block35_5_Conv2d_1x1",
            "inbound_nodes": [[["Block35_5_Concatenate", 0, 0, {}]]]
          },
          {
            "class_name": "Lambda",
            "config": {
              "name": "lambda_130",
              "trainable": true,
              "dtype": "float32",
              "function": [
                "4wIAAAAAAAAAAgAAAAIAAABDAAAAcwgAAAB8AHwBFABTACkBTqkAKQLaAXjaBXNjYWxlcgEAAABy\nAQAAAPofPGlweXRob24taW5wdXQtMTAtODZmMzlkNDUwYjkwPtoHc2NhbGluZwEAAABzAgAAAAAB\n",
                null,
                null
              ],
              "function_type": "lambda",
              "module": "__main__",
              "output_shape": [17, 17, 256],
              "output_shape_type": "raw",
              "output_shape_module": null,
              "arguments": { "scale": 0.17 }
            },
            "name": "lambda_130",
            "inbound_nodes": [[["Block35_5_Conv2d_1x1", 0, 0, {}]]]
          },
          {
            "class_name": "Add",
            "config": {
              "name": "add_130",
              "trainable": true,
              "dtype": "float32"
            },
            "name": "add_130",
            "inbound_nodes": [
              [
                ["Block35_4_Activation", 0, 0, {}],
                ["lambda_130", 0, 0, {}]
              ]
            ]
          },
          {
            "class_name": "Activation",
            "config": {
              "name": "Block35_5_Activation",
              "trainable": true,
              "dtype": "float32",
              "activation": "relu"
            },
            "name": "Block35_5_Activation",
            "inbound_nodes": [[["add_130", 0, 0, {}]]]
          },
          {
            "class_name": "Conv2D",
            "config": {
              "name": "Mixed_6a_Branch_1_Conv2d_0a_1x1",
              "trainable": true,
              "dtype": "float32",
              "filters": 192,
              "kernel_size": [1, 1],
              "strides": [1, 1],
              "padding": "same",
              "data_format": "channels_last",
              "dilation_rate": [1, 1],
              "groups": 1,
              "activation": "linear",
              "use_bias": false,
              "kernel_initializer": {
                "class_name": "GlorotUniform",
                "config": { "seed": null }
              },
              "bias_initializer": { "class_name": "Zeros", "config": {} },
              "kernel_regularizer": null,
              "bias_regularizer": null,
              "activity_regularizer": null,
              "kernel_constraint": null,
              "bias_constraint": null
            },
            "name": "Mixed_6a_Branch_1_Conv2d_0a_1x1",
            "inbound_nodes": [[["Block35_5_Activation", 0, 0, {}]]]
          },
          {
            "class_name": "BatchNormalization",
            "config": {
              "name": "Mixed_6a_Branch_1_Conv2d_0a_1x1_BatchNorm",
              "trainable": true,
              "dtype": "float32",
              "axis": [3],
              "momentum": 0.995,
              "epsilon": 0.001,
              "center": true,
              "scale": false,
              "beta_initializer": { "class_name": "Zeros", "config": {} },
              "gamma_initializer": { "class_name": "Ones", "config": {} },
              "moving_mean_initializer": {
                "class_name": "Zeros",
                "config": {}
              },
              "moving_variance_initializer": {
                "class_name": "Ones",
                "config": {}
              },
              "beta_regularizer": null,
              "gamma_regularizer": null,
              "beta_constraint": null,
              "gamma_constraint": null
            },
            "name": "Mixed_6a_Branch_1_Conv2d_0a_1x1_BatchNorm",
            "inbound_nodes": [[["Mixed_6a_Branch_1_Conv2d_0a_1x1", 0, 0, {}]]]
          },
          {
            "class_name": "Activation",
            "config": {
              "name": "Mixed_6a_Branch_1_Conv2d_0a_1x1_Activation",
              "trainable": true,
              "dtype": "float32",
              "activation": "relu"
            },
            "name": "Mixed_6a_Branch_1_Conv2d_0a_1x1_Activation",
            "inbound_nodes": [
              [["Mixed_6a_Branch_1_Conv2d_0a_1x1_BatchNorm", 0, 0, {}]]
            ]
          },
          {
            "class_name": "Conv2D",
            "config": {
              "name": "Mixed_6a_Branch_1_Conv2d_0b_3x3",
              "trainable": true,
              "dtype": "float32",
              "filters": 192,
              "kernel_size": [3, 3],
              "strides": [1, 1],
              "padding": "same",
              "data_format": "channels_last",
              "dilation_rate": [1, 1],
              "groups": 1,
              "activation": "linear",
              "use_bias": false,
              "kernel_initializer": {
                "class_name": "GlorotUniform",
                "config": { "seed": null }
              },
              "bias_initializer": { "class_name": "Zeros", "config": {} },
              "kernel_regularizer": null,
              "bias_regularizer": null,
              "activity_regularizer": null,
              "kernel_constraint": null,
              "bias_constraint": null
            },
            "name": "Mixed_6a_Branch_1_Conv2d_0b_3x3",
            "inbound_nodes": [
              [["Mixed_6a_Branch_1_Conv2d_0a_1x1_Activation", 0, 0, {}]]
            ]
          },
          {
            "class_name": "BatchNormalization",
            "config": {
              "name": "Mixed_6a_Branch_1_Conv2d_0b_3x3_BatchNorm",
              "trainable": true,
              "dtype": "float32",
              "axis": [3],
              "momentum": 0.995,
              "epsilon": 0.001,
              "center": true,
              "scale": false,
              "beta_initializer": { "class_name": "Zeros", "config": {} },
              "gamma_initializer": { "class_name": "Ones", "config": {} },
              "moving_mean_initializer": {
                "class_name": "Zeros",
                "config": {}
              },
              "moving_variance_initializer": {
                "class_name": "Ones",
                "config": {}
              },
              "beta_regularizer": null,
              "gamma_regularizer": null,
              "beta_constraint": null,
              "gamma_constraint": null
            },
            "name": "Mixed_6a_Branch_1_Conv2d_0b_3x3_BatchNorm",
            "inbound_nodes": [[["Mixed_6a_Branch_1_Conv2d_0b_3x3", 0, 0, {}]]]
          },
          {
            "class_name": "Activation",
            "config": {
              "name": "Mixed_6a_Branch_1_Conv2d_0b_3x3_Activation",
              "trainable": true,
              "dtype": "float32",
              "activation": "relu"
            },
            "name": "Mixed_6a_Branch_1_Conv2d_0b_3x3_Activation",
            "inbound_nodes": [
              [["Mixed_6a_Branch_1_Conv2d_0b_3x3_BatchNorm", 0, 0, {}]]
            ]
          },
          {
            "class_name": "Conv2D",
            "config": {
              "name": "Mixed_6a_Branch_0_Conv2d_1a_3x3",
              "trainable": true,
              "dtype": "float32",
              "filters": 384,
              "kernel_size": [3, 3],
              "strides": [2, 2],
              "padding": "valid",
              "data_format": "channels_last",
              "dilation_rate": [1, 1],
              "groups": 1,
              "activation": "linear",
              "use_bias": false,
              "kernel_initializer": {
                "class_name": "GlorotUniform",
                "config": { "seed": null }
              },
              "bias_initializer": { "class_name": "Zeros", "config": {} },
              "kernel_regularizer": null,
              "bias_regularizer": null,
              "activity_regularizer": null,
              "kernel_constraint": null,
              "bias_constraint": null
            },
            "name": "Mixed_6a_Branch_0_Conv2d_1a_3x3",
            "inbound_nodes": [[["Block35_5_Activation", 0, 0, {}]]]
          },
          {
            "class_name": "Conv2D",
            "config": {
              "name": "Mixed_6a_Branch_1_Conv2d_1a_3x3",
              "trainable": true,
              "dtype": "float32",
              "filters": 256,
              "kernel_size": [3, 3],
              "strides": [2, 2],
              "padding": "valid",
              "data_format": "channels_last",
              "dilation_rate": [1, 1],
              "groups": 1,
              "activation": "linear",
              "use_bias": false,
              "kernel_initializer": {
                "class_name": "GlorotUniform",
                "config": { "seed": null }
              },
              "bias_initializer": { "class_name": "Zeros", "config": {} },
              "kernel_regularizer": null,
              "bias_regularizer": null,
              "activity_regularizer": null,
              "kernel_constraint": null,
              "bias_constraint": null
            },
            "name": "Mixed_6a_Branch_1_Conv2d_1a_3x3",
            "inbound_nodes": [
              [["Mixed_6a_Branch_1_Conv2d_0b_3x3_Activation", 0, 0, {}]]
            ]
          },
          {
            "class_name": "BatchNormalization",
            "config": {
              "name": "Mixed_6a_Branch_0_Conv2d_1a_3x3_BatchNorm",
              "trainable": true,
              "dtype": "float32",
              "axis": [3],
              "momentum": 0.995,
              "epsilon": 0.001,
              "center": true,
              "scale": false,
              "beta_initializer": { "class_name": "Zeros", "config": {} },
              "gamma_initializer": { "class_name": "Ones", "config": {} },
              "moving_mean_initializer": {
                "class_name": "Zeros",
                "config": {}
              },
              "moving_variance_initializer": {
                "class_name": "Ones",
                "config": {}
              },
              "beta_regularizer": null,
              "gamma_regularizer": null,
              "beta_constraint": null,
              "gamma_constraint": null
            },
            "name": "Mixed_6a_Branch_0_Conv2d_1a_3x3_BatchNorm",
            "inbound_nodes": [[["Mixed_6a_Branch_0_Conv2d_1a_3x3", 0, 0, {}]]]
          },
          {
            "class_name": "BatchNormalization",
            "config": {
              "name": "Mixed_6a_Branch_1_Conv2d_1a_3x3_BatchNorm",
              "trainable": true,
              "dtype": "float32",
              "axis": [3],
              "momentum": 0.995,
              "epsilon": 0.001,
              "center": true,
              "scale": false,
              "beta_initializer": { "class_name": "Zeros", "config": {} },
              "gamma_initializer": { "class_name": "Ones", "config": {} },
              "moving_mean_initializer": {
                "class_name": "Zeros",
                "config": {}
              },
              "moving_variance_initializer": {
                "class_name": "Ones",
                "config": {}
              },
              "beta_regularizer": null,
              "gamma_regularizer": null,
              "beta_constraint": null,
              "gamma_constraint": null
            },
            "name": "Mixed_6a_Branch_1_Conv2d_1a_3x3_BatchNorm",
            "inbound_nodes": [[["Mixed_6a_Branch_1_Conv2d_1a_3x3", 0, 0, {}]]]
          },
          {
            "class_name": "Activation",
            "config": {
              "name": "Mixed_6a_Branch_0_Conv2d_1a_3x3_Activation",
              "trainable": true,
              "dtype": "float32",
              "activation": "relu"
            },
            "name": "Mixed_6a_Branch_0_Conv2d_1a_3x3_Activation",
            "inbound_nodes": [
              [["Mixed_6a_Branch_0_Conv2d_1a_3x3_BatchNorm", 0, 0, {}]]
            ]
          },
          {
            "class_name": "Activation",
            "config": {
              "name": "Mixed_6a_Branch_1_Conv2d_1a_3x3_Activation",
              "trainable": true,
              "dtype": "float32",
              "activation": "relu"
            },
            "name": "Mixed_6a_Branch_1_Conv2d_1a_3x3_Activation",
            "inbound_nodes": [
              [["Mixed_6a_Branch_1_Conv2d_1a_3x3_BatchNorm", 0, 0, {}]]
            ]
          },
          {
            "class_name": "MaxPooling2D",
            "config": {
              "name": "Mixed_6a_Branch_2_MaxPool_1a_3x3",
              "trainable": true,
              "dtype": "float32",
              "pool_size": [3, 3],
              "padding": "valid",
              "strides": [2, 2],
              "data_format": "channels_last"
            },
            "name": "Mixed_6a_Branch_2_MaxPool_1a_3x3",
            "inbound_nodes": [[["Block35_5_Activation", 0, 0, {}]]]
          },
          {
            "class_name": "Concatenate",
            "config": {
              "name": "Mixed_6a",
              "trainable": true,
              "dtype": "float32",
              "axis": 3
            },
            "name": "Mixed_6a",
            "inbound_nodes": [
              [
                ["Mixed_6a_Branch_0_Conv2d_1a_3x3_Activation", 0, 0, {}],
                ["Mixed_6a_Branch_1_Conv2d_1a_3x3_Activation", 0, 0, {}],
                ["Mixed_6a_Branch_2_MaxPool_1a_3x3", 0, 0, {}]
              ]
            ]
          },
          {
            "class_name": "Conv2D",
            "config": {
              "name": "Block17_1_Branch_1_Conv2d_0a_1x1",
              "trainable": true,
              "dtype": "float32",
              "filters": 128,
              "kernel_size": [1, 1],
              "strides": [1, 1],
              "padding": "same",
              "data_format": "channels_last",
              "dilation_rate": [1, 1],
              "groups": 1,
              "activation": "linear",
              "use_bias": false,
              "kernel_initializer": {
                "class_name": "GlorotUniform",
                "config": { "seed": null }
              },
              "bias_initializer": { "class_name": "Zeros", "config": {} },
              "kernel_regularizer": null,
              "bias_regularizer": null,
              "activity_regularizer": null,
              "kernel_constraint": null,
              "bias_constraint": null
            },
            "name": "Block17_1_Branch_1_Conv2d_0a_1x1",
            "inbound_nodes": [[["Mixed_6a", 0, 0, {}]]]
          },
          {
            "class_name": "BatchNormalization",
            "config": {
              "name": "Block17_1_Branch_1_Conv2d_0a_1x1_BatchNorm",
              "trainable": true,
              "dtype": "float32",
              "axis": [3],
              "momentum": 0.995,
              "epsilon": 0.001,
              "center": true,
              "scale": false,
              "beta_initializer": { "class_name": "Zeros", "config": {} },
              "gamma_initializer": { "class_name": "Ones", "config": {} },
              "moving_mean_initializer": {
                "class_name": "Zeros",
                "config": {}
              },
              "moving_variance_initializer": {
                "class_name": "Ones",
                "config": {}
              },
              "beta_regularizer": null,
              "gamma_regularizer": null,
              "beta_constraint": null,
              "gamma_constraint": null
            },
            "name": "Block17_1_Branch_1_Conv2d_0a_1x1_BatchNorm",
            "inbound_nodes": [[["Block17_1_Branch_1_Conv2d_0a_1x1", 0, 0, {}]]]
          },
          {
            "class_name": "Activation",
            "config": {
              "name": "Block17_1_Branch_1_Conv2d_0a_1x1_Activation",
              "trainable": true,
              "dtype": "float32",
              "activation": "relu"
            },
            "name": "Block17_1_Branch_1_Conv2d_0a_1x1_Activation",
            "inbound_nodes": [
              [["Block17_1_Branch_1_Conv2d_0a_1x1_BatchNorm", 0, 0, {}]]
            ]
          },
          {
            "class_name": "Conv2D",
            "config": {
              "name": "Block17_1_Branch_1_Conv2d_0b_1x7",
              "trainable": true,
              "dtype": "float32",
              "filters": 128,
              "kernel_size": [1, 7],
              "strides": [1, 1],
              "padding": "same",
              "data_format": "channels_last",
              "dilation_rate": [1, 1],
              "groups": 1,
              "activation": "linear",
              "use_bias": false,
              "kernel_initializer": {
                "class_name": "GlorotUniform",
                "config": { "seed": null }
              },
              "bias_initializer": { "class_name": "Zeros", "config": {} },
              "kernel_regularizer": null,
              "bias_regularizer": null,
              "activity_regularizer": null,
              "kernel_constraint": null,
              "bias_constraint": null
            },
            "name": "Block17_1_Branch_1_Conv2d_0b_1x7",
            "inbound_nodes": [
              [["Block17_1_Branch_1_Conv2d_0a_1x1_Activation", 0, 0, {}]]
            ]
          },
          {
            "class_name": "BatchNormalization",
            "config": {
              "name": "Block17_1_Branch_1_Conv2d_0b_1x7_BatchNorm",
              "trainable": true,
              "dtype": "float32",
              "axis": [3],
              "momentum": 0.995,
              "epsilon": 0.001,
              "center": true,
              "scale": false,
              "beta_initializer": { "class_name": "Zeros", "config": {} },
              "gamma_initializer": { "class_name": "Ones", "config": {} },
              "moving_mean_initializer": {
                "class_name": "Zeros",
                "config": {}
              },
              "moving_variance_initializer": {
                "class_name": "Ones",
                "config": {}
              },
              "beta_regularizer": null,
              "gamma_regularizer": null,
              "beta_constraint": null,
              "gamma_constraint": null
            },
            "name": "Block17_1_Branch_1_Conv2d_0b_1x7_BatchNorm",
            "inbound_nodes": [[["Block17_1_Branch_1_Conv2d_0b_1x7", 0, 0, {}]]]
          },
          {
            "class_name": "Activation",
            "config": {
              "name": "Block17_1_Branch_1_Conv2d_0b_1x7_Activation",
              "trainable": true,
              "dtype": "float32",
              "activation": "relu"
            },
            "name": "Block17_1_Branch_1_Conv2d_0b_1x7_Activation",
            "inbound_nodes": [
              [["Block17_1_Branch_1_Conv2d_0b_1x7_BatchNorm", 0, 0, {}]]
            ]
          },
          {
            "class_name": "Conv2D",
            "config": {
              "name": "Block17_1_Branch_0_Conv2d_1x1",
              "trainable": true,
              "dtype": "float32",
              "filters": 128,
              "kernel_size": [1, 1],
              "strides": [1, 1],
              "padding": "same",
              "data_format": "channels_last",
              "dilation_rate": [1, 1],
              "groups": 1,
              "activation": "linear",
              "use_bias": false,
              "kernel_initializer": {
                "class_name": "GlorotUniform",
                "config": { "seed": null }
              },
              "bias_initializer": { "class_name": "Zeros", "config": {} },
              "kernel_regularizer": null,
              "bias_regularizer": null,
              "activity_regularizer": null,
              "kernel_constraint": null,
              "bias_constraint": null
            },
            "name": "Block17_1_Branch_0_Conv2d_1x1",
            "inbound_nodes": [[["Mixed_6a", 0, 0, {}]]]
          },
          {
            "class_name": "Conv2D",
            "config": {
              "name": "Block17_1_Branch_1_Conv2d_0c_7x1",
              "trainable": true,
              "dtype": "float32",
              "filters": 128,
              "kernel_size": [7, 1],
              "strides": [1, 1],
              "padding": "same",
              "data_format": "channels_last",
              "dilation_rate": [1, 1],
              "groups": 1,
              "activation": "linear",
              "use_bias": false,
              "kernel_initializer": {
                "class_name": "GlorotUniform",
                "config": { "seed": null }
              },
              "bias_initializer": { "class_name": "Zeros", "config": {} },
              "kernel_regularizer": null,
              "bias_regularizer": null,
              "activity_regularizer": null,
              "kernel_constraint": null,
              "bias_constraint": null
            },
            "name": "Block17_1_Branch_1_Conv2d_0c_7x1",
            "inbound_nodes": [
              [["Block17_1_Branch_1_Conv2d_0b_1x7_Activation", 0, 0, {}]]
            ]
          },
          {
            "class_name": "BatchNormalization",
            "config": {
              "name": "Block17_1_Branch_0_Conv2d_1x1_BatchNorm",
              "trainable": true,
              "dtype": "float32",
              "axis": [3],
              "momentum": 0.995,
              "epsilon": 0.001,
              "center": true,
              "scale": false,
              "beta_initializer": { "class_name": "Zeros", "config": {} },
              "gamma_initializer": { "class_name": "Ones", "config": {} },
              "moving_mean_initializer": {
                "class_name": "Zeros",
                "config": {}
              },
              "moving_variance_initializer": {
                "class_name": "Ones",
                "config": {}
              },
              "beta_regularizer": null,
              "gamma_regularizer": null,
              "beta_constraint": null,
              "gamma_constraint": null
            },
            "name": "Block17_1_Branch_0_Conv2d_1x1_BatchNorm",
            "inbound_nodes": [[["Block17_1_Branch_0_Conv2d_1x1", 0, 0, {}]]]
          },
          {
            "class_name": "BatchNormalization",
            "config": {
              "name": "Block17_1_Branch_1_Conv2d_0c_7x1_BatchNorm",
              "trainable": true,
              "dtype": "float32",
              "axis": [3],
              "momentum": 0.995,
              "epsilon": 0.001,
              "center": true,
              "scale": false,
              "beta_initializer": { "class_name": "Zeros", "config": {} },
              "gamma_initializer": { "class_name": "Ones", "config": {} },
              "moving_mean_initializer": {
                "class_name": "Zeros",
                "config": {}
              },
              "moving_variance_initializer": {
                "class_name": "Ones",
                "config": {}
              },
              "beta_regularizer": null,
              "gamma_regularizer": null,
              "beta_constraint": null,
              "gamma_constraint": null
            },
            "name": "Block17_1_Branch_1_Conv2d_0c_7x1_BatchNorm",
            "inbound_nodes": [[["Block17_1_Branch_1_Conv2d_0c_7x1", 0, 0, {}]]]
          },
          {
            "class_name": "Activation",
            "config": {
              "name": "Block17_1_Branch_0_Conv2d_1x1_Activation",
              "trainable": true,
              "dtype": "float32",
              "activation": "relu"
            },
            "name": "Block17_1_Branch_0_Conv2d_1x1_Activation",
            "inbound_nodes": [
              [["Block17_1_Branch_0_Conv2d_1x1_BatchNorm", 0, 0, {}]]
            ]
          },
          {
            "class_name": "Activation",
            "config": {
              "name": "Block17_1_Branch_1_Conv2d_0c_7x1_Activation",
              "trainable": true,
              "dtype": "float32",
              "activation": "relu"
            },
            "name": "Block17_1_Branch_1_Conv2d_0c_7x1_Activation",
            "inbound_nodes": [
              [["Block17_1_Branch_1_Conv2d_0c_7x1_BatchNorm", 0, 0, {}]]
            ]
          },
          {
            "class_name": "Concatenate",
            "config": {
              "name": "Block17_1_Concatenate",
              "trainable": true,
              "dtype": "float32",
              "axis": 3
            },
            "name": "Block17_1_Concatenate",
            "inbound_nodes": [
              [
                ["Block17_1_Branch_0_Conv2d_1x1_Activation", 0, 0, {}],
                ["Block17_1_Branch_1_Conv2d_0c_7x1_Activation", 0, 0, {}]
              ]
            ]
          },
          {
            "class_name": "Conv2D",
            "config": {
              "name": "Block17_1_Conv2d_1x1",
              "trainable": true,
              "dtype": "float32",
              "filters": 896,
              "kernel_size": [1, 1],
              "strides": [1, 1],
              "padding": "same",
              "data_format": "channels_last",
              "dilation_rate": [1, 1],
              "groups": 1,
              "activation": "linear",
              "use_bias": true,
              "kernel_initializer": {
                "class_name": "GlorotUniform",
                "config": { "seed": null }
              },
              "bias_initializer": { "class_name": "Zeros", "config": {} },
              "kernel_regularizer": null,
              "bias_regularizer": null,
              "activity_regularizer": null,
              "kernel_constraint": null,
              "bias_constraint": null
            },
            "name": "Block17_1_Conv2d_1x1",
            "inbound_nodes": [[["Block17_1_Concatenate", 0, 0, {}]]]
          },
          {
            "class_name": "Lambda",
            "config": {
              "name": "lambda_131",
              "trainable": true,
              "dtype": "float32",
              "function": [
                "4wIAAAAAAAAAAgAAAAIAAABDAAAAcwgAAAB8AHwBFABTACkBTqkAKQLaAXjaBXNjYWxlcgEAAABy\nAQAAAPofPGlweXRob24taW5wdXQtMTAtODZmMzlkNDUwYjkwPtoHc2NhbGluZwEAAABzAgAAAAAB\n",
                null,
                null
              ],
              "function_type": "lambda",
              "module": "__main__",
              "output_shape": [8, 8, 896],
              "output_shape_type": "raw",
              "output_shape_module": null,
              "arguments": { "scale": 0.1 }
            },
            "name": "lambda_131",
            "inbound_nodes": [[["Block17_1_Conv2d_1x1", 0, 0, {}]]]
          },
          {
            "class_name": "Add",
            "config": {
              "name": "add_131",
              "trainable": true,
              "dtype": "float32"
            },
            "name": "add_131",
            "inbound_nodes": [
              [
                ["Mixed_6a", 0, 0, {}],
                ["lambda_131", 0, 0, {}]
              ]
            ]
          },
          {
            "class_name": "Activation",
            "config": {
              "name": "Block17_1_Activation",
              "trainable": true,
              "dtype": "float32",
              "activation": "relu"
            },
            "name": "Block17_1_Activation",
            "inbound_nodes": [[["add_131", 0, 0, {}]]]
          },
          {
            "class_name": "Conv2D",
            "config": {
              "name": "Block17_2_Branch_2_Conv2d_0a_1x1",
              "trainable": true,
              "dtype": "float32",
              "filters": 128,
              "kernel_size": [1, 1],
              "strides": [1, 1],
              "padding": "same",
              "data_format": "channels_last",
              "dilation_rate": [1, 1],
              "groups": 1,
              "activation": "linear",
              "use_bias": false,
              "kernel_initializer": {
                "class_name": "GlorotUniform",
                "config": { "seed": null }
              },
              "bias_initializer": { "class_name": "Zeros", "config": {} },
              "kernel_regularizer": null,
              "bias_regularizer": null,
              "activity_regularizer": null,
              "kernel_constraint": null,
              "bias_constraint": null
            },
            "name": "Block17_2_Branch_2_Conv2d_0a_1x1",
            "inbound_nodes": [[["Block17_1_Activation", 0, 0, {}]]]
          },
          {
            "class_name": "BatchNormalization",
            "config": {
              "name": "Block17_2_Branch_2_Conv2d_0a_1x1_BatchNorm",
              "trainable": true,
              "dtype": "float32",
              "axis": [3],
              "momentum": 0.995,
              "epsilon": 0.001,
              "center": true,
              "scale": false,
              "beta_initializer": { "class_name": "Zeros", "config": {} },
              "gamma_initializer": { "class_name": "Ones", "config": {} },
              "moving_mean_initializer": {
                "class_name": "Zeros",
                "config": {}
              },
              "moving_variance_initializer": {
                "class_name": "Ones",
                "config": {}
              },
              "beta_regularizer": null,
              "gamma_regularizer": null,
              "beta_constraint": null,
              "gamma_constraint": null
            },
            "name": "Block17_2_Branch_2_Conv2d_0a_1x1_BatchNorm",
            "inbound_nodes": [[["Block17_2_Branch_2_Conv2d_0a_1x1", 0, 0, {}]]]
          },
          {
            "class_name": "Activation",
            "config": {
              "name": "Block17_2_Branch_2_Conv2d_0a_1x1_Activation",
              "trainable": true,
              "dtype": "float32",
              "activation": "relu"
            },
            "name": "Block17_2_Branch_2_Conv2d_0a_1x1_Activation",
            "inbound_nodes": [
              [["Block17_2_Branch_2_Conv2d_0a_1x1_BatchNorm", 0, 0, {}]]
            ]
          },
          {
            "class_name": "Conv2D",
            "config": {
              "name": "Block17_2_Branch_2_Conv2d_0b_1x7",
              "trainable": true,
              "dtype": "float32",
              "filters": 128,
              "kernel_size": [1, 7],
              "strides": [1, 1],
              "padding": "same",
              "data_format": "channels_last",
              "dilation_rate": [1, 1],
              "groups": 1,
              "activation": "linear",
              "use_bias": false,
              "kernel_initializer": {
                "class_name": "GlorotUniform",
                "config": { "seed": null }
              },
              "bias_initializer": { "class_name": "Zeros", "config": {} },
              "kernel_regularizer": null,
              "bias_regularizer": null,
              "activity_regularizer": null,
              "kernel_constraint": null,
              "bias_constraint": null
            },
            "name": "Block17_2_Branch_2_Conv2d_0b_1x7",
            "inbound_nodes": [
              [["Block17_2_Branch_2_Conv2d_0a_1x1_Activation", 0, 0, {}]]
            ]
          },
          {
            "class_name": "BatchNormalization",
            "config": {
              "name": "Block17_2_Branch_2_Conv2d_0b_1x7_BatchNorm",
              "trainable": true,
              "dtype": "float32",
              "axis": [3],
              "momentum": 0.995,
              "epsilon": 0.001,
              "center": true,
              "scale": false,
              "beta_initializer": { "class_name": "Zeros", "config": {} },
              "gamma_initializer": { "class_name": "Ones", "config": {} },
              "moving_mean_initializer": {
                "class_name": "Zeros",
                "config": {}
              },
              "moving_variance_initializer": {
                "class_name": "Ones",
                "config": {}
              },
              "beta_regularizer": null,
              "gamma_regularizer": null,
              "beta_constraint": null,
              "gamma_constraint": null
            },
            "name": "Block17_2_Branch_2_Conv2d_0b_1x7_BatchNorm",
            "inbound_nodes": [[["Block17_2_Branch_2_Conv2d_0b_1x7", 0, 0, {}]]]
          },
          {
            "class_name": "Activation",
            "config": {
              "name": "Block17_2_Branch_2_Conv2d_0b_1x7_Activation",
              "trainable": true,
              "dtype": "float32",
              "activation": "relu"
            },
            "name": "Block17_2_Branch_2_Conv2d_0b_1x7_Activation",
            "inbound_nodes": [
              [["Block17_2_Branch_2_Conv2d_0b_1x7_BatchNorm", 0, 0, {}]]
            ]
          },
          {
            "class_name": "Conv2D",
            "config": {
              "name": "Block17_2_Branch_0_Conv2d_1x1",
              "trainable": true,
              "dtype": "float32",
              "filters": 128,
              "kernel_size": [1, 1],
              "strides": [1, 1],
              "padding": "same",
              "data_format": "channels_last",
              "dilation_rate": [1, 1],
              "groups": 1,
              "activation": "linear",
              "use_bias": false,
              "kernel_initializer": {
                "class_name": "GlorotUniform",
                "config": { "seed": null }
              },
              "bias_initializer": { "class_name": "Zeros", "config": {} },
              "kernel_regularizer": null,
              "bias_regularizer": null,
              "activity_regularizer": null,
              "kernel_constraint": null,
              "bias_constraint": null
            },
            "name": "Block17_2_Branch_0_Conv2d_1x1",
            "inbound_nodes": [[["Block17_1_Activation", 0, 0, {}]]]
          },
          {
            "class_name": "Conv2D",
            "config": {
              "name": "Block17_2_Branch_2_Conv2d_0c_7x1",
              "trainable": true,
              "dtype": "float32",
              "filters": 128,
              "kernel_size": [7, 1],
              "strides": [1, 1],
              "padding": "same",
              "data_format": "channels_last",
              "dilation_rate": [1, 1],
              "groups": 1,
              "activation": "linear",
              "use_bias": false,
              "kernel_initializer": {
                "class_name": "GlorotUniform",
                "config": { "seed": null }
              },
              "bias_initializer": { "class_name": "Zeros", "config": {} },
              "kernel_regularizer": null,
              "bias_regularizer": null,
              "activity_regularizer": null,
              "kernel_constraint": null,
              "bias_constraint": null
            },
            "name": "Block17_2_Branch_2_Conv2d_0c_7x1",
            "inbound_nodes": [
              [["Block17_2_Branch_2_Conv2d_0b_1x7_Activation", 0, 0, {}]]
            ]
          },
          {
            "class_name": "BatchNormalization",
            "config": {
              "name": "Block17_2_Branch_0_Conv2d_1x1_BatchNorm",
              "trainable": true,
              "dtype": "float32",
              "axis": [3],
              "momentum": 0.995,
              "epsilon": 0.001,
              "center": true,
              "scale": false,
              "beta_initializer": { "class_name": "Zeros", "config": {} },
              "gamma_initializer": { "class_name": "Ones", "config": {} },
              "moving_mean_initializer": {
                "class_name": "Zeros",
                "config": {}
              },
              "moving_variance_initializer": {
                "class_name": "Ones",
                "config": {}
              },
              "beta_regularizer": null,
              "gamma_regularizer": null,
              "beta_constraint": null,
              "gamma_constraint": null
            },
            "name": "Block17_2_Branch_0_Conv2d_1x1_BatchNorm",
            "inbound_nodes": [[["Block17_2_Branch_0_Conv2d_1x1", 0, 0, {}]]]
          },
          {
            "class_name": "BatchNormalization",
            "config": {
              "name": "Block17_2_Branch_2_Conv2d_0c_7x1_BatchNorm",
              "trainable": true,
              "dtype": "float32",
              "axis": [3],
              "momentum": 0.995,
              "epsilon": 0.001,
              "center": true,
              "scale": false,
              "beta_initializer": { "class_name": "Zeros", "config": {} },
              "gamma_initializer": { "class_name": "Ones", "config": {} },
              "moving_mean_initializer": {
                "class_name": "Zeros",
                "config": {}
              },
              "moving_variance_initializer": {
                "class_name": "Ones",
                "config": {}
              },
              "beta_regularizer": null,
              "gamma_regularizer": null,
              "beta_constraint": null,
              "gamma_constraint": null
            },
            "name": "Block17_2_Branch_2_Conv2d_0c_7x1_BatchNorm",
            "inbound_nodes": [[["Block17_2_Branch_2_Conv2d_0c_7x1", 0, 0, {}]]]
          },
          {
            "class_name": "Activation",
            "config": {
              "name": "Block17_2_Branch_0_Conv2d_1x1_Activation",
              "trainable": true,
              "dtype": "float32",
              "activation": "relu"
            },
            "name": "Block17_2_Branch_0_Conv2d_1x1_Activation",
            "inbound_nodes": [
              [["Block17_2_Branch_0_Conv2d_1x1_BatchNorm", 0, 0, {}]]
            ]
          },
          {
            "class_name": "Activation",
            "config": {
              "name": "Block17_2_Branch_2_Conv2d_0c_7x1_Activation",
              "trainable": true,
              "dtype": "float32",
              "activation": "relu"
            },
            "name": "Block17_2_Branch_2_Conv2d_0c_7x1_Activation",
            "inbound_nodes": [
              [["Block17_2_Branch_2_Conv2d_0c_7x1_BatchNorm", 0, 0, {}]]
            ]
          },
          {
            "class_name": "Concatenate",
            "config": {
              "name": "Block17_2_Concatenate",
              "trainable": true,
              "dtype": "float32",
              "axis": 3
            },
            "name": "Block17_2_Concatenate",
            "inbound_nodes": [
              [
                ["Block17_2_Branch_0_Conv2d_1x1_Activation", 0, 0, {}],
                ["Block17_2_Branch_2_Conv2d_0c_7x1_Activation", 0, 0, {}]
              ]
            ]
          },
          {
            "class_name": "Conv2D",
            "config": {
              "name": "Block17_2_Conv2d_1x1",
              "trainable": true,
              "dtype": "float32",
              "filters": 896,
              "kernel_size": [1, 1],
              "strides": [1, 1],
              "padding": "same",
              "data_format": "channels_last",
              "dilation_rate": [1, 1],
              "groups": 1,
              "activation": "linear",
…
          "name": "Block17_8_Branch_0_Conv2d_1x1_BatchNorm/moving_variance",
          "shape": [128],
          "dtype": "float32"
        },
        {
          "name": "Block17_8_Branch_8_Conv2d_0a_1x1/kernel",
          "shape": [1, 1, 896, 128],
          "dtype": "float32"
        },
        {
          "name": "Block17_8_Branch_8_Conv2d_0a_1x1_BatchNorm/beta",
          "shape": [128],
          "dtype": "float32"
        },
        {
          "name": "Block17_8_Branch_8_Conv2d_0a_1x1_BatchNorm/moving_mean",
          "shape": [128],
          "dtype": "float32"
        },
        {
          "name": "Block17_8_Branch_8_Conv2d_0a_1x1_BatchNorm/moving_variance",
          "shape": [128],
          "dtype": "float32"
        },
        {
          "name": "Block17_8_Branch_8_Conv2d_0b_1x7/kernel",
          "shape": [1, 7, 128, 128],
          "dtype": "float32"
        },
        {
          "name": "Block17_8_Branch_8_Conv2d_0b_1x7_BatchNorm/beta",
          "shape": [128],
          "dtype": "float32"
        },
        {
          "name": "Block17_8_Branch_8_Conv2d_0b_1x7_BatchNorm/moving_mean",
          "shape": [128],
          "dtype": "float32"
        },
        {
          "name": "Block17_8_Branch_8_Conv2d_0b_1x7_BatchNorm/moving_variance",
          "shape": [128],
          "dtype": "float32"
        },
        {
          "name": "Block17_8_Branch_8_Conv2d_0c_7x1/kernel",
          "shape": [7, 1, 128, 128],
          "dtype": "float32"
        },
        {
          "name": "Block17_8_Branch_8_Conv2d_0c_7x1_BatchNorm/beta",
          "shape": [128],
          "dtype": "float32"
        },
        {
          "name": "Block17_8_Branch_8_Conv2d_0c_7x1_BatchNorm/moving_mean",
          "shape": [128],
          "dtype": "float32"
        },
        {
          "name": "Block17_8_Branch_8_Conv2d_0c_7x1_BatchNorm/moving_variance",
          "shape": [128],
          "dtype": "float32"
        },
        {
          "name": "Block17_8_Conv2d_1x1/kernel",
          "shape": [1, 1, 256, 896],
          "dtype": "float32"
        },
        {
          "name": "Block17_8_Conv2d_1x1/bias",
          "shape": [896],
          "dtype": "float32"
        },
        {
          "name": "Block17_9_Branch_0_Conv2d_1x1/kernel",
          "shape": [1, 1, 896, 128],
          "dtype": "float32"
        },
        {
          "name": "Block17_9_Branch_0_Conv2d_1x1_BatchNorm/beta",
          "shape": [128],
          "dtype": "float32"
        },
        {
          "name": "Block17_9_Branch_0_Conv2d_1x1_BatchNorm/moving_mean",
          "shape": [128],
          "dtype": "float32"
        },
        {
          "name": "Block17_9_Branch_0_Conv2d_1x1_BatchNorm/moving_variance",
          "shape": [128],
          "dtype": "float32"
        },
        {
          "name": "Block17_9_Branch_9_Conv2d_0a_1x1/kernel",
          "shape": [1, 1, 896, 128],
          "dtype": "float32"
        },
        {
          "name": "Block17_9_Branch_9_Conv2d_0a_1x1_BatchNorm/beta",
          "shape": [128],
          "dtype": "float32"
        },
        {
          "name": "Block17_9_Branch_9_Conv2d_0a_1x1_BatchNorm/moving_mean",
          "shape": [128],
          "dtype": "float32"
        },
        {
          "name": "Block17_9_Branch_9_Conv2d_0a_1x1_BatchNorm/moving_variance",
          "shape": [128],
          "dtype": "float32"
        },
        {
          "name": "Block17_9_Branch_9_Conv2d_0b_1x7/kernel",
          "shape": [1, 7, 128, 128],
          "dtype": "float32"
        },
        {
          "name": "Block17_9_Branch_9_Conv2d_0b_1x7_BatchNorm/beta",
          "shape": [128],
          "dtype": "float32"
        },
        {
          "name": "Block17_9_Branch_9_Conv2d_0b_1x7_BatchNorm/moving_mean",
          "shape": [128],
          "dtype": "float32"
        },
        {
          "name": "Block17_9_Branch_9_Conv2d_0b_1x7_BatchNorm/moving_variance",
          "shape": [128],
          "dtype": "float32"
        },
        {
          "name": "Block17_9_Branch_9_Conv2d_0c_7x1/kernel",
          "shape": [7, 1, 128, 128],
          "dtype": "float32"
        },
        {
          "name": "Block17_9_Branch_9_Conv2d_0c_7x1_BatchNorm/beta",
          "shape": [128],
          "dtype": "float32"
        },
        {
          "name": "Block17_9_Branch_9_Conv2d_0c_7x1_BatchNorm/moving_mean",
          "shape": [128],
          "dtype": "float32"
        },
        {
          "name": "Block17_9_Branch_9_Conv2d_0c_7x1_BatchNorm/moving_variance",
          "shape": [128],
          "dtype": "float32"
        },
        {
          "name": "Block17_9_Conv2d_1x1/kernel",
          "shape": [1, 1, 256, 896],
          "dtype": "float32"
        },
        {
          "name": "Block17_9_Conv2d_1x1/bias",
          "shape": [896],
          "dtype": "float32"
        },
        {
          "name": "Block35_1_Branch_0_Conv2d_1x1/kernel",
          "shape": [1, 1, 256, 32],
          "dtype": "float32"
        },
        {
          "name": "Block35_1_Branch_0_Conv2d_1x1_BatchNorm/beta",
          "shape": [32],
          "dtype": "float32"
        },
        {
          "name": "Block35_1_Branch_0_Conv2d_1x1_BatchNorm/moving_mean",
          "shape": [32],
          "dtype": "float32"
        },
        {
          "name": "Block35_1_Branch_0_Conv2d_1x1_BatchNorm/moving_variance",
          "shape": [32],
          "dtype": "float32"
        },
        {
          "name": "Block35_1_Branch_1_Conv2d_0a_1x1/kernel",
          "shape": [1, 1, 256, 32],
          "dtype": "float32"
        },
        {
          "name": "Block35_1_Branch_1_Conv2d_0a_1x1_BatchNorm/beta",
          "shape": [32],
          "dtype": "float32"
        },
        {
          "name": "Block35_1_Branch_1_Conv2d_0a_1x1_BatchNorm/moving_mean",
          "shape": [32],
          "dtype": "float32"
        },
        {
          "name": "Block35_1_Branch_1_Conv2d_0a_1x1_BatchNorm/moving_variance",
          "shape": [32],
          "dtype": "float32"
        },
        {
          "name": "Block35_1_Branch_1_Conv2d_0b_3x3/kernel",
          "shape": [3, 3, 32, 32],
          "dtype": "float32"
        },
        {
          "name": "Block35_1_Branch_1_Conv2d_0b_3x3_BatchNorm/beta",
          "shape": [32],
          "dtype": "float32"
        },
        {
          "name": "Block35_1_Branch_1_Conv2d_0b_3x3_BatchNorm/moving_mean",
          "shape": [32],
          "dtype": "float32"
        },
        {
          "name": "Block35_1_Branch_1_Conv2d_0b_3x3_BatchNorm/moving_variance",
          "shape": [32],
          "dtype": "float32"
        },
        {
          "name": "Block35_1_Branch_2_Conv2d_0a_1x1/kernel",
          "shape": [1, 1, 256, 32],
          "dtype": "float32"
        },
        {
          "name": "Block35_1_Branch_2_Conv2d_0a_1x1_BatchNorm/beta",
          "shape": [32],
          "dtype": "float32"
        },
        {
          "name": "Block35_1_Branch_2_Conv2d_0a_1x1_BatchNorm/moving_mean",
          "shape": [32],
          "dtype": "float32"
        },
        {
          "name": "Block35_1_Branch_2_Conv2d_0a_1x1_BatchNorm/moving_variance",
          "shape": [32],
          "dtype": "float32"
        },
        {
          "name": "Block35_1_Branch_2_Conv2d_0b_3x3/kernel",
          "shape": [3, 3, 32, 32],
          "dtype": "float32"
        },
        {
          "name": "Block35_1_Branch_2_Conv2d_0b_3x3_BatchNorm/beta",
          "shape": [32],
          "dtype": "float32"
        },
        {
          "name": "Block35_1_Branch_2_Conv2d_0b_3x3_BatchNorm/moving_mean",
          "shape": [32],
          "dtype": "float32"
        },
        {
          "name": "Block35_1_Branch_2_Conv2d_0b_3x3_BatchNorm/moving_variance",
          "shape": [32],
          "dtype": "float32"
        },
        {
          "name": "Block35_1_Branch_2_Conv2d_0c_3x3/kernel",
          "shape": [3, 3, 32, 32],
          "dtype": "float32"
        },
        {
          "name": "Block35_1_Branch_2_Conv2d_0c_3x3_BatchNorm/beta",
          "shape": [32],
          "dtype": "float32"
        },
        {
          "name": "Block35_1_Branch_2_Conv2d_0c_3x3_BatchNorm/moving_mean",
          "shape": [32],
          "dtype": "float32"
        },
        {
          "name": "Block35_1_Branch_2_Conv2d_0c_3x3_BatchNorm/moving_variance",
          "shape": [32],
          "dtype": "float32"
        },
        {
          "name": "Block35_1_Conv2d_1x1/kernel",
          "shape": [1, 1, 96, 256],
          "dtype": "float32"
        },
        {
          "name": "Block35_1_Conv2d_1x1/bias",
          "shape": [256],
          "dtype": "float32"
        },
        {
          "name": "Block35_2_Branch_0_Conv2d_1x1/kernel",
          "shape": [1, 1, 256, 32],
          "dtype": "float32"
        },
        {
          "name": "Block35_2_Branch_0_Conv2d_1x1_BatchNorm/beta",
          "shape": [32],
          "dtype": "float32"
        },
        {
          "name": "Block35_2_Branch_0_Conv2d_1x1_BatchNorm/moving_mean",
          "shape": [32],
          "dtype": "float32"
        },
        {
          "name": "Block35_2_Branch_0_Conv2d_1x1_BatchNorm/moving_variance",
          "shape": [32],
          "dtype": "float32"
        },
        {
          "name": "Block35_2_Branch_1_Conv2d_0a_1x1/kernel",
          "shape": [1, 1, 256, 32],
          "dtype": "float32"
        },
        {
          "name": "Block35_2_Branch_1_Conv2d_0a_1x1_BatchNorm/beta",
          "shape": [32],
          "dtype": "float32"
        },
        {
          "name": "Block35_2_Branch_1_Conv2d_0a_1x1_BatchNorm/moving_mean",
          "shape": [32],
          "dtype": "float32"
        },
        {
          "name": "Block35_2_Branch_1_Conv2d_0a_1x1_BatchNorm/moving_variance",
          "shape": [32],
          "dtype": "float32"
        },
        {
          "name": "Block35_2_Branch_1_Conv2d_0b_3x3/kernel",
          "shape": [3, 3, 32, 32],
          "dtype": "float32"
        },
        {
          "name": "Block35_2_Branch_1_Conv2d_0b_3x3_BatchNorm/beta",
          "shape": [32],
          "dtype": "float32"
        },
        {
          "name": "Block35_2_Branch_1_Conv2d_0b_3x3_BatchNorm/moving_mean",
          "shape": [32],
          "dtype": "float32"
        },
        {
          "name": "Block35_2_Branch_1_Conv2d_0b_3x3_BatchNorm/moving_variance",
          "shape": [32],
          "dtype": "float32"
        },
        {
          "name": "Block35_2_Branch_2_Conv2d_0a_1x1/kernel",
          "shape": [1, 1, 256, 32],
          "dtype": "float32"
        },
        {
          "name": "Block35_2_Branch_2_Conv2d_0a_1x1_BatchNorm/beta",
          "shape": [32],
          "dtype": "float32"
        },
        {
          "name": "Block35_2_Branch_2_Conv2d_0a_1x1_BatchNorm/moving_mean",
          "shape": [32],
          "dtype": "float32"
        },
        {
          "name": "Block35_2_Branch_2_Conv2d_0a_1x1_BatchNorm/moving_variance",
          "shape": [32],
          "dtype": "float32"
        },
        {
          "name": "Block35_2_Branch_2_Conv2d_0b_3x3/kernel",
          "shape": [3, 3, 32, 32],
          "dtype": "float32"
        },
        {
          "name": "Block35_2_Branch_2_Conv2d_0b_3x3_BatchNorm/beta",
          "shape": [32],
          "dtype": "float32"
        },
        {
          "name": "Block35_2_Branch_2_Conv2d_0b_3x3_BatchNorm/moving_mean",
          "shape": [32],
          "dtype": "float32"
        },
        {
          "name": "Block35_2_Branch_2_Conv2d_0b_3x3_BatchNorm/moving_variance",
          "shape": [32],
          "dtype": "float32"
        },
        {
          "name": "Block35_2_Branch_2_Conv2d_0c_3x3/kernel",
          "shape": [3, 3, 32, 32],
          "dtype": "float32"
        },
        {
          "name": "Block35_2_Branch_2_Conv2d_0c_3x3_BatchNorm/beta",
          "shape": [32],
          "dtype": "float32"
        },
        {
          "name": "Block35_2_Branch_2_Conv2d_0c_3x3_BatchNorm/moving_mean",
          "shape": [32],
          "dtype": "float32"
        },
        {
          "name": "Block35_2_Branch_2_Conv2d_0c_3x3_BatchNorm/moving_variance",
          "shape": [32],
          "dtype": "float32"
        },
        {
          "name": "Block35_2_Conv2d_1x1/kernel",
          "shape": [1, 1, 96, 256],
          "dtype": "float32"
        },
        {
          "name": "Block35_2_Conv2d_1x1/bias",
          "shape": [256],
          "dtype": "float32"
        },
        {
          "name": "Block35_3_Branch_0_Conv2d_1x1/kernel",
          "shape": [1, 1, 256, 32],
          "dtype": "float32"
        },
        {
          "name": "Block35_3_Branch_0_Conv2d_1x1_BatchNorm/beta",
          "shape": [32],
          "dtype": "float32"
        },
        {
          "name": "Block35_3_Branch_0_Conv2d_1x1_BatchNorm/moving_mean",
          "shape": [32],
          "dtype": "float32"
        },
        {
          "name": "Block35_3_Branch_0_Conv2d_1x1_BatchNorm/moving_variance",
          "shape": [32],
          "dtype": "float32"
        },
        {
          "name": "Block35_3_Branch_1_Conv2d_0a_1x1/kernel",
          "shape": [1, 1, 256, 32],
          "dtype": "float32"
        },
        {
          "name": "Block35_3_Branch_1_Conv2d_0a_1x1_BatchNorm/beta",
          "shape": [32],
          "dtype": "float32"
        },
        {
          "name": "Block35_3_Branch_1_Conv2d_0a_1x1_BatchNorm/moving_mean",
          "shape": [32],
          "dtype": "float32"
        },
        {
          "name": "Block35_3_Branch_1_Conv2d_0a_1x1_BatchNorm/moving_variance",
          "shape": [32],
          "dtype": "float32"
        },
        {
          "name": "Block35_3_Branch_1_Conv2d_0b_3x3/kernel",
          "shape": [3, 3, 32, 32],
          "dtype": "float32"
        },
        {
          "name": "Block35_3_Branch_1_Conv2d_0b_3x3_BatchNorm/beta",
          "shape": [32],
          "dtype": "float32"
        },
        {
          "name": "Block35_3_Branch_1_Conv2d_0b_3x3_BatchNorm/moving_mean",
          "shape": [32],
          "dtype": "float32"
        },
        {
          "name": "Block35_3_Branch_1_Conv2d_0b_3x3_BatchNorm/moving_variance",
          "shape": [32],
          "dtype": "float32"
        },
        {
          "name": "Block35_3_Branch_2_Conv2d_0a_1x1/kernel",
          "shape": [1, 1, 256, 32],
          "dtype": "float32"
        },
        {
          "name": "Block35_3_Branch_2_Conv2d_0a_1x1_BatchNorm/beta",
          "shape": [32],
          "dtype": "float32"
        },
        {
          "name": "Block35_3_Branch_2_Conv2d_0a_1x1_BatchNorm/moving_mean",
          "shape": [32],
          "dtype": "float32"
        },
        {
          "name": "Block35_3_Branch_2_Conv2d_0a_1x1_BatchNorm/moving_variance",
          "shape": [32],
          "dtype": "float32"
        },
        {
          "name": "Block35_3_Branch_2_Conv2d_0b_3x3/kernel",
          "shape": [3, 3, 32, 32],
          "dtype": "float32"
        },
        {
          "name": "Block35_3_Branch_2_Conv2d_0b_3x3_BatchNorm/beta",
          "shape": [32],
          "dtype": "float32"
        },
        {
          "name": "Block35_3_Branch_2_Conv2d_0b_3x3_BatchNorm/moving_mean",
          "shape": [32],
          "dtype": "float32"
        },
        {
          "name": "Block35_3_Branch_2_Conv2d_0b_3x3_BatchNorm/moving_variance",
          "shape": [32],
          "dtype": "float32"
        },
        {
          "name": "Block35_3_Branch_2_Conv2d_0c_3x3/kernel",
          "shape": [3, 3, 32, 32],
          "dtype": "float32"
        },
        {
          "name": "Block35_3_Branch_2_Conv2d_0c_3x3_BatchNorm/beta",
          "shape": [32],
          "dtype": "float32"
        },
        {
          "name": "Block35_3_Branch_2_Conv2d_0c_3x3_BatchNorm/moving_mean",
          "shape": [32],
          "dtype": "float32"
        },
        {
          "name": "Block35_3_Branch_2_Conv2d_0c_3x3_BatchNorm/moving_variance",
          "shape": [32],
          "dtype": "float32"
        },
        {
          "name": "Block35_3_Conv2d_1x1/kernel",
          "shape": [1, 1, 96, 256],
          "dtype": "float32"
        },
        {
          "name": "Block35_3_Conv2d_1x1/bias",
          "shape": [256],
          "dtype": "float32"
        },
        {
          "name": "Block35_4_Branch_0_Conv2d_1x1/kernel",
          "shape": [1, 1, 256, 32],
          "dtype": "float32"
        },
        {
          "name": "Block35_4_Branch_0_Conv2d_1x1_BatchNorm/beta",
          "shape": [32],
          "dtype": "float32"
        },
        {
          "name": "Block35_4_Branch_0_Conv2d_1x1_BatchNorm/moving_mean",
          "shape": [32],
          "dtype": "float32"
        },
        {
          "name": "Block35_4_Branch_0_Conv2d_1x1_BatchNorm/moving_variance",
          "shape": [32],
          "dtype": "float32"
        },
        {
          "name": "Block35_4_Branch_1_Conv2d_0a_1x1/kernel",
          "shape": [1, 1, 256, 32],
          "dtype": "float32"
        },
        {
          "name": "Block35_4_Branch_1_Conv2d_0a_1x1_BatchNorm/beta",
          "shape": [32],
          "dtype": "float32"
        },
        {
          "name": "Block35_4_Branch_1_Conv2d_0a_1x1_BatchNorm/moving_mean",
          "shape": [32],
          "dtype": "float32"
        },
        {
          "name": "Block35_4_Branch_1_Conv2d_0a_1x1_BatchNorm/moving_variance",
          "shape": [32],
          "dtype": "float32"
        },
        {
          "name": "Block35_4_Branch_1_Conv2d_0b_3x3/kernel",
          "shape": [3, 3, 32, 32],
          "dtype": "float32"
        },
        {
          "name": "Block35_4_Branch_1_Conv2d_0b_3x3_BatchNorm/beta",
          "shape": [32],
          "dtype": "float32"
        },
        {
          "name": "Block35_4_Branch_1_Conv2d_0b_3x3_BatchNorm/moving_mean",
          "shape": [32],
          "dtype": "float32"
        },
        {
          "name": "Block35_4_Branch_1_Conv2d_0b_3x3_BatchNorm/moving_variance",
          "shape": [32],
          "dtype": "float32"
        },
        {
          "name": "Block35_4_Branch_2_Conv2d_0a_1x1/kernel",
          "shape": [1, 1, 256, 32],
          "dtype": "float32"
        },
        {
          "name": "Block35_4_Branch_2_Conv2d_0a_1x1_BatchNorm/beta",
          "shape": [32],
          "dtype": "float32"
        },
        {
          "name": "Block35_4_Branch_2_Conv2d_0a_1x1_BatchNorm/moving_mean",
          "shape": [32],
          "dtype": "float32"
        },
        {
          "name": "Block35_4_Branch_2_Conv2d_0a_1x1_BatchNorm/moving_variance",
          "shape": [32],
          "dtype": "float32"
        },
        {
          "name": "Block35_4_Branch_2_Conv2d_0b_3x3/kernel",
          "shape": [3, 3, 32, 32],
          "dtype": "float32"
        },
        {
          "name": "Block35_4_Branch_2_Conv2d_0b_3x3_BatchNorm/beta",
          "shape": [32],
          "dtype": "float32"
        },
        {
          "name": "Block35_4_Branch_2_Conv2d_0b_3x3_BatchNorm/moving_mean",
          "shape": [32],
          "dtype": "float32"
        },
        {
          "name": "Block35_4_Branch_2_Conv2d_0b_3x3_BatchNorm/moving_variance",
          "shape": [32],
          "dtype": "float32"
        },
        {
          "name": "Block35_4_Branch_2_Conv2d_0c_3x3/kernel",
          "shape": [3, 3, 32, 32],
          "dtype": "float32"
        },
        {
          "name": "Block35_4_Branch_2_Conv2d_0c_3x3_BatchNorm/beta",
          "shape": [32],
          "dtype": "float32"
        },
        {
          "name": "Block35_4_Branch_2_Conv2d_0c_3x3_BatchNorm/moving_mean",
          "shape": [32],
          "dtype": "float32"
        },
        {
          "name": "Block35_4_Branch_2_Conv2d_0c_3x3_BatchNorm/moving_variance",
          "shape": [32],
          "dtype": "float32"
        },
        {
          "name": "Block35_4_Conv2d_1x1/kernel",
          "shape": [1, 1, 96, 256],
          "dtype": "float32"
        },
        {
          "name": "Block35_4_Conv2d_1x1/bias",
          "shape": [256],
          "dtype": "float32"
        },
        {
          "name": "Block35_5_Branch_0_Conv2d_1x1/kernel",
          "shape": [1, 1, 256, 32],
          "dtype": "float32"
        },
        {
          "name": "Block35_5_Branch_0_Conv2d_1x1_BatchNorm/beta",
          "shape": [32],
          "dtype": "float32"
        },
        {
          "name": "Block35_5_Branch_0_Conv2d_1x1_BatchNorm/moving_mean",
          "shape": [32],
          "dtype": "float32"
        },
        {
          "name": "Block35_5_Branch_0_Conv2d_1x1_BatchNorm/moving_variance",
          "shape": [32],
          "dtype": "float32"
        },
        {
          "name": "Block35_5_Branch_1_Conv2d_0a_1x1/kernel",
          "shape": [1, 1, 256, 32],
          "dtype": "float32"
        },
        {
          "name": "Block35_5_Branch_1_Conv2d_0a_1x1_BatchNorm/beta",
          "shape": [32],
          "dtype": "float32"
        },
        {
          "name": "Block35_5_Branch_1_Conv2d_0a_1x1_BatchNorm/moving_mean",
          "shape": [32],
          "dtype": "float32"
        },
        {
          "name": "Block35_5_Branch_1_Conv2d_0a_1x1_BatchNorm/moving_variance",
          "shape": [32],
          "dtype": "float32"
        },
        {
          "name": "Block35_5_Branch_1_Conv2d_0b_3x3/kernel",
          "shape": [3, 3, 32, 32],
          "dtype": "float32"
        },
        {
          "name": "Block35_5_Branch_1_Conv2d_0b_3x3_BatchNorm/beta",
          "shape": [32],
          "dtype": "float32"
        },
        {
          "name": "Block35_5_Branch_1_Conv2d_0b_3x3_BatchNorm/moving_mean",
          "shape": [32],
          "dtype": "float32"
        },
        {
          "name": "Block35_5_Branch_1_Conv2d_0b_3x3_BatchNorm/moving_variance",
          "shape": [32],
          "dtype": "float32"
        },
        {
          "name": "Block35_5_Branch_2_Conv2d_0a_1x1/kernel",
          "shape": [1, 1, 256, 32],
          "dtype": "float32"
        },
        {
          "name": "Block35_5_Branch_2_Conv2d_0a_1x1_BatchNorm/beta",
          "shape": [32],
          "dtype": "float32"
        },
        {
          "name": "Block35_5_Branch_2_Conv2d_0a_1x1_BatchNorm/moving_mean",
          "shape": [32],
          "dtype": "float32"
        },
        {
          "name": "Block35_5_Branch_2_Conv2d_0a_1x1_BatchNorm/moving_variance",
          "shape": [32],
          "dtype": "float32"
        },
        {
          "name": "Block35_5_Branch_2_Conv2d_0b_3x3/kernel",
          "shape": [3, 3, 32, 32],
          "dtype": "float32"
        },
        {
          "name": "Block35_5_Branch_2_Conv2d_0b_3x3_BatchNorm/beta",
          "shape": [32],
          "dtype": "float32"
        },
        {
          "name": "Block35_5_Branch_2_Conv2d_0b_3x3_BatchNorm/moving_mean",
          "shape": [32],
          "dtype": "float32"
        },
        {
          "name": "Block35_5_Branch_2_Conv2d_0b_3x3_BatchNorm/moving_variance",
          "shape": [32],
          "dtype": "float32"
        },
        {
          "name": "Block35_5_Branch_2_Conv2d_0c_3x3/kernel",
          "shape": [3, 3, 32, 32],
          "dtype": "float32"
        },
        {
          "name": "Block35_5_Branch_2_Conv2d_0c_3x3_BatchNorm/beta",
          "shape": [32],
          "dtype": "float32"
        },
        {
          "name": "Block35_5_Branch_2_Conv2d_0c_3x3_BatchNorm/moving_mean",
          "shape": [32],
          "dtype": "float32"
        },
        {
          "name": "Block35_5_Branch_2_Conv2d_0c_3x3_BatchNorm/moving_variance",
          "shape": [32],
          "dtype": "float32"
        },
        {
          "name": "Block35_5_Conv2d_1x1/kernel",
          "shape": [1, 1, 96, 256],
          "dtype": "float32"
        },
        {
          "name": "Block35_5_Conv2d_1x1/bias",
          "shape": [256],
          "dtype": "float32"
        },
        {
          "name": "Block8_1_Branch_0_Conv2d_1x1/kernel",
          "shape": [1, 1, 1792, 192],
          "dtype": "float32"
        },
        {
          "name": "Block8_1_Branch_0_Conv2d_1x1_BatchNorm/beta",
          "shape": [192],
          "dtype": "float32"
        },
        {
          "name": "Block8_1_Branch_0_Conv2d_1x1_BatchNorm/moving_mean",
          "shape": [192],
          "dtype": "float32"
        },
        {
          "name": "Block8_1_Branch_0_Conv2d_1x1_BatchNorm/moving_variance",
          "shape": [192],
          "dtype": "float32"
        },
        {
          "name": "Block8_1_Branch_1_Conv2d_0a_1x1/kernel",
          "shape": [1, 1, 1792, 192],
          "dtype": "float32"
        },
        {
          "name": "Block8_1_Branch_1_Conv2d_0a_1x1_BatchNorm/beta",
          "shape": [192],
          "dtype": "float32"
        },
        {
          "name": "Block8_1_Branch_1_Conv2d_0a_1x1_BatchNorm/moving_mean",
          "shape": [192],
          "dtype": "float32"
        },
        {
          "name": "Block8_1_Branch_1_Conv2d_0a_1x1_BatchNorm/moving_variance",
          "shape": [192],
          "dtype": "float32"
        },
        {
          "name": "Block8_1_Branch_1_Conv2d_0b_1x3/kernel",
          "shape": [1, 3, 192, 192],
          "dtype": "float32"
        },
        {
          "name": "Block8_1_Branch_1_Conv2d_0b_1x3_BatchNorm/beta",
          "shape": [192],
          "dtype": "float32"
        },
        {
          "name": "Block8_1_Branch_1_Conv2d_0b_1x3_BatchNorm/moving_mean",
          "shape": [192],
          "dtype": "float32"
        },
        {
          "name": "Block8_1_Branch_1_Conv2d_0b_1x3_BatchNorm/moving_variance",
          "shape": [192],
          "dtype": "float32"
        },
        {
          "name": "Block8_1_Branch_1_Conv2d_0c_3x1/kernel",
          "shape": [3, 1, 192, 192],
          "dtype": "float32"
        },
        {
          "name": "Block8_1_Branch_1_Conv2d_0c_3x1_BatchNorm/beta",
          "shape": [192],
          "dtype": "float32"
        },
        {
          "name": "Block8_1_Branch_1_Conv2d_0c_3x1_BatchNorm/moving_mean",
          "shape": [192],
          "dtype": "float32"
        },
        {
          "name": "Block8_1_Branch_1_Conv2d_0c_3x1_BatchNorm/moving_variance",
          "shape": [192],
          "dtype": "float32"
        },
        {
          "name": "Block8_1_Conv2d_1x1/kernel",
          "shape": [1, 1, 384, 1792],
          "dtype": "float32"
        },
        {
          "name": "Block8_1_Conv2d_1x1/bias",
          "shape": [1792],
          "dtype": "float32"
        },
        {
          "name": "Block8_2_Branch_0_Conv2d_1x1/kernel",
          "shape": [1, 1, 1792, 192],
          "dtype": "float32"
        },
        {
          "name": "Block8_2_Branch_0_Conv2d_1x1_BatchNorm/beta",
          "shape": [192],
          "dtype": "float32"
        },
        {
          "name": "Block8_2_Branch_0_Conv2d_1x1_BatchNorm/moving_mean",
          "shape": [192],
          "dtype": "float32"
        },
        {
          "name": "Block8_2_Branch_0_Conv2d_1x1_BatchNorm/moving_variance",
          "shape": [192],
          "dtype": "float32"
        },
        {
          "name": "Block8_2_Branch_2_Conv2d_0a_1x1/kernel",
          "shape": [1, 1, 1792, 192],
          "dtype": "float32"
        },
        {
          "name": "Block8_2_Branch_2_Conv2d_0a_1x1_BatchNorm/beta",
          "shape": [192],
          "dtype": "float32"
        },
        {
          "name": "Block8_2_Branch_2_Conv2d_0a_1x1_BatchNorm/moving_mean",
          "shape": [192],
          "dtype": "float32"
        },
        {
          "name": "Block8_2_Branch_2_Conv2d_0a_1x1_BatchNorm/moving_variance",
          "shape": [192],
          "dtype": "float32"
        },
        {
          "name": "Block8_2_Branch_2_Conv2d_0b_1x3/kernel",
          "shape": [1, 3, 192, 192],
          "dtype": "float32"
        },
        {
          "name": "Block8_2_Branch_2_Conv2d_0b_1x3_BatchNorm/beta",
          "shape": [192],
          "dtype": "float32"
        },
        {
          "name": "Block8_2_Branch_2_Conv2d_0b_1x3_BatchNorm/moving_mean",
          "shape": [192],
          "dtype": "float32"
        },
        {
          "name": "Block8_2_Branch_2_Conv2d_0b_1x3_BatchNorm/moving_variance",
          "shape": [192],
          "dtype": "float32"
        },
        {
          "name": "Block8_2_Branch_2_Conv2d_0c_3x1/kernel",
          "shape": [3, 1, 192, 192],
          "dtype": "float32"
        },
        {
          "name": "Block8_2_Branch_2_Conv2d_0c_3x1_BatchNorm/beta",
          "shape": [192],
          "dtype": "float32"
        },
        {
          "name": "Block8_2_Branch_2_Conv2d_0c_3x1_BatchNorm/moving_mean",
          "shape": [192],
          "dtype": "float32"
        },
        {
          "name": "Block8_2_Branch_2_Conv2d_0c_3x1_BatchNorm/moving_variance",
          "shape": [192],
          "dtype": "float32"
        },
        {
          "name": "Block8_2_Conv2d_1x1/kernel",
          "shape": [1, 1, 384, 1792],
          "dtype": "float32"
        },
        {
          "name": "Block8_2_Conv2d_1x1/bias",
          "shape": [1792],
          "dtype": "float32"
        },
        {
          "name": "Block8_3_Branch_0_Conv2d_1x1/kernel",
          "shape": [1, 1, 1792, 192],
          "dtype": "float32"
        },
        {
          "name": "Block8_3_Branch_0_Conv2d_1x1_BatchNorm/beta",
          "shape": [192],
          "dtype": "float32"
        },
        {
          "name": "Block8_3_Branch_0_Conv2d_1x1_BatchNorm/moving_mean",
          "shape": [192],
          "dtype": "float32"
        },
        {
          "name": "Block8_3_Branch_0_Conv2d_1x1_BatchNorm/moving_variance",
          "shape": [192],
          "dtype": "float32"
        },
        {
          "name": "Block8_3_Branch_3_Conv2d_0a_1x1/kernel",
          "shape": [1, 1, 1792, 192],
          "dtype": "float32"
        },
        {
          "name": "Block8_3_Branch_3_Conv2d_0a_1x1_BatchNorm/beta",
          "shape": [192],
          "dtype": "float32"
        },
        {
          "name": "Block8_3_Branch_3_Conv2d_0a_1x1_BatchNorm/moving_mean",
          "shape": [192],
          "dtype": "float32"
        },
        {
          "name": "Block8_3_Branch_3_Conv2d_0a_1x1_BatchNorm/moving_variance",
          "shape": [192],
          "dtype": "float32"
        },
        {
          "name": "Block8_3_Branch_3_Conv2d_0b_1x3/kernel",
          "shape": [1, 3, 192, 192],
          "dtype": "float32"
        },
        {
          "name": "Block8_3_Branch_3_Conv2d_0b_1x3_BatchNorm/beta",
          "shape": [192],
          "dtype": "float32"
        },
        {
          "name": "Block8_3_Branch_3_Conv2d_0b_1x3_BatchNorm/moving_mean",
          "shape": [192],
          "dtype": "float32"
        },
        {
          "name": "Block8_3_Branch_3_Conv2d_0b_1x3_BatchNorm/moving_variance",
          "shape": [192],
          "dtype": "float32"
        },
        {
          "name": "Block8_3_Branch_3_Conv2d_0c_3x1/kernel",
          "shape": [3, 1, 192, 192],
          "dtype": "float32"
        },
        {
          "name": "Block8_3_Branch_3_Conv2d_0c_3x1_BatchNorm/beta",
          "shape": [192],
          "dtype": "float32"
        },
        {
          "name": "Block8_3_Branch_3_Conv2d_0c_3x1_BatchNorm/moving_mean",
          "shape": [192],
          "dtype": "float32"
        },
        {
          "name": "Block8_3_Branch_3_Conv2d_0c_3x1_BatchNorm/moving_variance",
          "shape": [192],
          "dtype": "float32"
        },
        {
          "name": "Block8_3_Conv2d_1x1/kernel",
          "shape": [1, 1, 384, 1792],
          "dtype": "float32"
        },
        {
          "name": "Block8_3_Conv2d_1x1/bias",
          "shape": [1792],
          "dtype": "float32"
        },
        {
          "name": "Block8_4_Branch_0_Conv2d_1x1/kernel",
          "shape": [1, 1, 1792, 192],
          "dtype": "float32"
        },
        {
          "name": "Block8_4_Branch_0_Conv2d_1x1_BatchNorm/beta",
          "shape": [192],
          "dtype": "float32"
        },
        {
          "name": "Block8_4_Branch_0_Conv2d_1x1_BatchNorm/moving_mean",
          "shape": [192],
          "dtype": "float32"
        },
        {
          "name": "Block8_4_Branch_0_Conv2d_1x1_BatchNorm/moving_variance",
          "shape": [192],
          "dtype": "float32"
        },
        {
          "name": "Block8_4_Branch_4_Conv2d_0a_1x1/kernel",
          "shape": [1, 1, 1792, 192],
          "dtype": "float32"
        },
        {
          "name": "Block8_4_Branch_4_Conv2d_0a_1x1_BatchNorm/beta",
          "shape": [192],
          "dtype": "float32"
        },
        {
          "name": "Block8_4_Branch_4_Conv2d_0a_1x1_BatchNorm/moving_mean",
          "shape": [192],
          "dtype": "float32"
        },
        {
          "name": "Block8_4_Branch_4_Conv2d_0a_1x1_BatchNorm/moving_variance",
          "shape": [192],
          "dtype": "float32"
        },
        {
          "name": "Block8_4_Branch_4_Conv2d_0b_1x3/kernel",
          "shape": [1, 3, 192, 192],
          "dtype": "float32"
        },
        {
          "name": "Block8_4_Branch_4_Conv2d_0b_1x3_BatchNorm/beta",
          "shape": [192],
          "dtype": "float32"
        },
        {
          "name": "Block8_4_Branch_4_Conv2d_0b_1x3_BatchNorm/moving_mean",
          "shape": [192],
          "dtype": "float32"
        },
        {
          "name": "Block8_4_Branch_4_Conv2d_0b_1x3_BatchNorm/moving_variance",
          "shape": [192],
          "dtype": "float32"
        },
        {
          "name": "Block8_4_Branch_4_Conv2d_0c_3x1/kernel",
          "shape": [3, 1, 192, 192],
          "dtype": "float32"
        },
        {
          "name": "Block8_4_Branch_4_Conv2d_0c_3x1_BatchNorm/beta",
          "shape": [192],
          "dtype": "float32"
        },
        {
          "name": "Block8_4_Branch_4_Conv2d_0c_3x1_BatchNorm/moving_mean",
          "shape": [192],
          "dtype": "float32"
        },
        {
          "name": "Block8_4_Branch_4_Conv2d_0c_3x1_BatchNorm/moving_variance",
          "shape": [192],
          "dtype": "float32"
        },
        {
          "name": "Block8_4_Conv2d_1x1/kernel",
          "shape": [1, 1, 384, 1792],
          "dtype": "float32"
        },
        {
          "name": "Block8_4_Conv2d_1x1/bias",
          "shape": [1792],
          "dtype": "float32"
        },
        {
          "name": "Block8_5_Branch_0_Conv2d_1x1/kernel",
          "shape": [1, 1, 1792, 192],
          "dtype": "float32"
        },
        {
          "name": "Block8_5_Branch_0_Conv2d_1x1_BatchNorm/beta",
          "shape": [192],
          "dtype": "float32"
        },
        {
          "name": "Block8_5_Branch_0_Conv2d_1x1_BatchNorm/moving_mean",
          "shape": [192],
          "dtype": "float32"
        },
        {
          "name": "Block8_5_Branch_0_Conv2d_1x1_BatchNorm/moving_variance",
          "shape": [192],
          "dtype": "float32"
        },
        {
          "name": "Block8_5_Branch_5_Conv2d_0a_1x1/kernel",
          "shape": [1, 1, 1792, 192],
          "dtype": "float32"
        },
        {
          "name": "Block8_5_Branch_5_Conv2d_0a_1x1_BatchNorm/beta",
          "shape": [192],
          "dtype": "float32"
        },
        {
          "name": "Block8_5_Branch_5_Conv2d_0a_1x1_BatchNorm/moving_mean",
          "shape": [192],
          "dtype": "float32"
        },
        {
          "name": "Block8_5_Branch_5_Conv2d_0a_1x1_BatchNorm/moving_variance",
          "shape": [192],
          "dtype": "float32"
        },
        {
          "name": "Block8_5_Branch_5_Conv2d_0b_1x3/kernel",
          "shape": [1, 3, 192, 192],
          "dtype": "float32"
        },
        {
          "name": "Block8_5_Branch_5_Conv2d_0b_1x3_BatchNorm/beta",
          "shape": [192],
          "dtype": "float32"
        },
        {
          "name": "Block8_5_Branch_5_Conv2d_0b_1x3_BatchNorm/moving_mean",
          "shape": [192],
          "dtype": "float32"
        },
        {
          "name": "Block8_5_Branch_5_Conv2d_0b_1x3_BatchNorm/moving_variance",
          "shape": [192],
          "dtype": "float32"
        },
        {
          "name": "Block8_5_Branch_5_Conv2d_0c_3x1/kernel",
          "shape": [3, 1, 192, 192],
          "dtype": "float32"
        },
        {
          "name": "Block8_5_Branch_5_Conv2d_0c_3x1_BatchNorm/beta",
          "shape": [192],
          "dtype": "float32"
        },
        {
          "name": "Block8_5_Branch_5_Conv2d_0c_3x1_BatchNorm/moving_mean",
          "shape": [192],
          "dtype": "float32"
        },
        {
          "name": "Block8_5_Branch_5_Conv2d_0c_3x1_BatchNorm/moving_variance",
          "shape": [192],
          "dtype": "float32"
        },
        {
          "name": "Block8_5_Conv2d_1x1/kernel",
          "shape": [1, 1, 384, 1792],
          "dtype": "float32"
        },
        {
          "name": "Block8_5_Conv2d_1x1/bias",
          "shape": [1792],
          "dtype": "float32"
        },
        {
          "name": "Block8_6_Branch_0_Conv2d_1x1/kernel",
          "shape": [1, 1, 1792, 192],
          "dtype": "float32"
        },
        {
          "name": "Block8_6_Branch_0_Conv2d_1x1_BatchNorm/beta",
          "shape": [192],
          "dtype": "float32"
        },
        {
          "name": "Block8_6_Branch_0_Conv2d_1x1_BatchNorm/moving_mean",
          "shape": [192],
          "dtype": "float32"
        },
        {
          "name": "Block8_6_Branch_0_Conv2d_1x1_BatchNorm/moving_variance",
          "shape": [192],
          "dtype": "float32"
        },
        {
          "name": "Block8_6_Branch_1_Conv2d_0a_1x1/kernel",
          "shape": [1, 1, 1792, 192],
          "dtype": "float32"
        },
        {
          "name": "Block8_6_Branch_1_Conv2d_0a_1x1_BatchNorm/beta",
          "shape": [192],
          "dtype": "float32"
        },
        {
          "name": "Block8_6_Branch_1_Conv2d_0a_1x1_BatchNorm/moving_mean",
          "shape": [192],
          "dtype": "float32"
        },
        {
          "name": "Block8_6_Branch_1_Conv2d_0a_1x1_BatchNorm/moving_variance",
          "shape": [192],
          "dtype": "float32"
        },
        {
          "name": "Block8_6_Branch_1_Conv2d_0b_1x3/kernel",
          "shape": [1, 3, 192, 192],
          "dtype": "float32"
        },
        {
          "name": "Block8_6_Branch_1_Conv2d_0b_1x3_BatchNorm/beta",
          "shape": [192],
          "dtype": "float32"
        },
        {
          "name": "Block8_6_Branch_1_Conv2d_0b_1x3_BatchNorm/moving_mean",
          "shape": [192],
          "dtype": "float32"
        },
        {
          "name": "Block8_6_Branch_1_Conv2d_0b_1x3_BatchNorm/moving_variance",
          "shape": [192],
          "dtype": "float32"
        },
        {
          "name": "Block8_6_Branch_1_Conv2d_0c_3x1/kernel",
          "shape": [3, 1, 192, 192],
          "dtype": "float32"
        },
        {
          "name": "Block8_6_Branch_1_Conv2d_0c_3x1_BatchNorm/beta",
          "shape": [192],
          "dtype": "float32"
        },
        {
          "name": "Block8_6_Branch_1_Conv2d_0c_3x1_BatchNorm/moving_mean",
          "shape": [192],
          "dtype": "float32"
        },
        {
          "name": "Block8_6_Branch_1_Conv2d_0c_3x1_BatchNorm/moving_variance",
          "shape": [192],
          "dtype": "float32"
        },
        {
          "name": "Block8_6_Conv2d_1x1/kernel",
          "shape": [1, 1, 384, 1792],
          "dtype": "float32"
        },
        {
          "name": "Block8_6_Conv2d_1x1/bias",
          "shape": [1792],
          "dtype": "float32"
        },
        {
          "name": "Bottleneck/kernel",
          "shape": [1792, 512],
          "dtype": "float32"
        },
        {
          "name": "Bottleneck_BatchNorm/beta",
          "shape": [512],
          "dtype": "float32"
        },
        {
          "name": "Bottleneck_BatchNorm/moving_mean",
          "shape": [512],
          "dtype": "float32"
        },
        {
          "name": "Bottleneck_BatchNorm/moving_variance",
          "shape": [512],
          "dtype": "float32"
        },
        {
          "name": "Conv2d_1a_3x3/kernel",
          "shape": [3, 3, 3, 32],
          "dtype": "float32"
        },
        {
          "name": "Conv2d_1a_3x3_BatchNorm/beta",
          "shape": [32],
          "dtype": "float32"
        },
        {
          "name": "Conv2d_1a_3x3_BatchNorm/moving_mean",
          "shape": [32],
          "dtype": "float32"
        },
        {
          "name": "Conv2d_1a_3x3_BatchNorm/moving_variance",
          "shape": [32],
          "dtype": "float32"
        },
        {
          "name": "Conv2d_2a_3x3/kernel",
          "shape": [3, 3, 32, 32],
          "dtype": "float32"
        },
        {
          "name": "Conv2d_2a_3x3_BatchNorm/beta",
          "shape": [32],
          "dtype": "float32"
        },
        {
          "name": "Conv2d_2a_3x3_BatchNorm/moving_mean",
          "shape": [32],
          "dtype": "float32"
        },
        {
          "name": "Conv2d_2a_3x3_BatchNorm/moving_variance",
          "shape": [32],
          "dtype": "float32"
        },
        {
          "name": "Conv2d_2b_3x3/kernel",
          "shape": [3, 3, 32, 64],
          "dtype": "float32"
        },
        {
          "name": "Conv2d_2b_3x3_BatchNorm/beta",
          "shape": [64],
          "dtype": "float32"
        },
        {
          "name": "Conv2d_2b_3x3_BatchNorm/moving_mean",
          "shape": [64],
          "dtype": "float32"
        },
        {
          "name": "Conv2d_2b_3x3_BatchNorm/moving_variance",
          "shape": [64],
          "dtype": "float32"
        },
        {
          "name": "Conv2d_3b_1x1/kernel",
          "shape": [1, 1, 64, 80],
          "dtype": "float32"
        },
        {
          "name": "Conv2d_3b_1x1_BatchNorm/beta",
          "shape": [80],
          "dtype": "float32"
        },
        {
          "name": "Conv2d_3b_1x1_BatchNorm/moving_mean",
          "shape": [80],
          "dtype": "float32"
        },
        {
          "name": "Conv2d_3b_1x1_BatchNorm/moving_variance",
          "shape": [80],
          "dtype": "float32"
        },
        {
          "name": "Conv2d_4a_3x3/kernel",
          "shape": [3, 3, 80, 192],
          "dtype": "float32"
        },
        {
          "name": "Conv2d_4a_3x3_BatchNorm/beta",
          "shape": [192],
          "dtype": "float32"
        },
        {
          "name": "Conv2d_4a_3x3_BatchNorm/moving_mean",
          "shape": [192],
          "dtype": "float32"
        },
        {
          "name": "Conv2d_4a_3x3_BatchNorm/moving_variance",
          "shape": [192],
          "dtype": "float32"
        },
        {
          "name": "Conv2d_4b_3x3/kernel",
          "shape": [3, 3, 192, 256],
          "dtype": "float32"
        },
        {
          "name": "Conv2d_4b_3x3_BatchNorm/beta",
          "shape": [256],
          "dtype": "float32"
        },
        {
          "name": "Conv2d_4b_3x3_BatchNorm/moving_mean",
          "shape": [256],
          "dtype": "float32"
        },
        {
          "name": "Conv2d_4b_3x3_BatchNorm/moving_variance",
          "shape": [256],
          "dtype": "float32"
        },
        {
          "name": "Mixed_6a_Branch_0_Conv2d_1a_3x3/kernel",
          "shape": [3, 3, 256, 384],
          "dtype": "float32"
        },
        {
          "name": "Mixed_6a_Branch_0_Conv2d_1a_3x3_BatchNorm/beta",
          "shape": [384],
          "dtype": "float32"
        },
        {
          "name": "Mixed_6a_Branch_0_Conv2d_1a_3x3_BatchNorm/moving_mean",
          "shape": [384],
          "dtype": "float32"
        },
        {
          "name": "Mixed_6a_Branch_0_Conv2d_1a_3x3_BatchNorm/moving_variance",
          "shape": [384],
          "dtype": "float32"
        },
        {
          "name": "Mixed_6a_Branch_1_Conv2d_0a_1x1/kernel",
          "shape": [1, 1, 256, 192],
          "dtype": "float32"
        },
        {
          "name": "Mixed_6a_Branch_1_Conv2d_0a_1x1_BatchNorm/beta",
          "shape": [192],
          "dtype": "float32"
        },
        {
          "name": "Mixed_6a_Branch_1_Conv2d_0a_1x1_BatchNorm/moving_mean",
          "shape": [192],
          "dtype": "float32"
        },
        {
          "name": "Mixed_6a_Branch_1_Conv2d_0a_1x1_BatchNorm/moving_variance",
          "shape": [192],
          "dtype": "float32"
        },
        {
          "name": "Mixed_6a_Branch_1_Conv2d_0b_3x3/kernel",
          "shape": [3, 3, 192, 192],
          "dtype": "float32"
        },
        {
          "name": "Mixed_6a_Branch_1_Conv2d_0b_3x3_BatchNorm/beta",
          "shape": [192],
          "dtype": "float32"
        },
        {
          "name": "Mixed_6a_Branch_1_Conv2d_0b_3x3_BatchNorm/moving_mean",
          "shape": [192],
          "dtype": "float32"
        },
        {
          "name": "Mixed_6a_Branch_1_Conv2d_0b_3x3_BatchNorm/moving_variance",
          "shape": [192],
          "dtype": "float32"
        },
        {
          "name": "Mixed_6a_Branch_1_Conv2d_1a_3x3/kernel",
          "shape": [3, 3, 192, 256],
          "dtype": "float32"
        },
        {
          "name": "Mixed_6a_Branch_1_Conv2d_1a_3x3_BatchNorm/beta",
          "shape": [256],
          "dtype": "float32"
        },
        {
          "name": "Mixed_6a_Branch_1_Conv2d_1a_3x3_BatchNorm/moving_mean",
          "shape": [256],
          "dtype": "float32"
        },
        {
          "name": "Mixed_6a_Branch_1_Conv2d_1a_3x3_BatchNorm/moving_variance",
          "shape": [256],
          "dtype": "float32"
        },
        {
          "name": "Mixed_7a_Branch_0_Conv2d_0a_1x1/kernel",
          "shape": [1, 1, 896, 256],
          "dtype": "float32"
        },
        {
          "name": "Mixed_7a_Branch_0_Conv2d_0a_1x1_BatchNorm/beta",
          "shape": [256],
          "dtype": "float32"
        },
        {
          "name": "Mixed_7a_Branch_0_Conv2d_0a_1x1_BatchNorm/moving_mean",
          "shape": [256],
          "dtype": "float32"
        },
        {
          "name": "Mixed_7a_Branch_0_Conv2d_0a_1x1_BatchNorm/moving_variance",
          "shape": [256],
          "dtype": "float32"
        },
        {
          "name": "Mixed_7a_Branch_0_Conv2d_1a_3x3/kernel",
          "shape": [3, 3, 256, 384],
          "dtype": "float32"
        },
        {
          "name": "Mixed_7a_Branch_0_Conv2d_1a_3x3_BatchNorm/beta",
          "shape": [384],
          "dtype": "float32"
        },
        {
          "name": "Mixed_7a_Branch_0_Conv2d_1a_3x3_BatchNorm/moving_mean",
          "shape": [384],
          "dtype": "float32"
        },
        {
          "name": "Mixed_7a_Branch_0_Conv2d_1a_3x3_BatchNorm/moving_variance",
          "shape": [384],
          "dtype": "float32"
        },
        {
          "name": "Mixed_7a_Branch_1_Conv2d_0a_1x1/kernel",
          "shape": [1, 1, 896, 256],
          "dtype": "float32"
        },
        {
          "name": "Mixed_7a_Branch_1_Conv2d_0a_1x1_BatchNorm/beta",
          "shape": [256],
          "dtype": "float32"
        },
        {
          "name": "Mixed_7a_Branch_1_Conv2d_0a_1x1_BatchNorm/moving_mean",
          "shape": [256],
          "dtype": "float32"
        },
        {
          "name": "Mixed_7a_Branch_1_Conv2d_0a_1x1_BatchNorm/moving_variance",
          "shape": [256],
          "dtype": "float32"
        },
        {
          "name": "Mixed_7a_Branch_1_Conv2d_1a_3x3/kernel",
          "shape": [3, 3, 256, 256],
          "dtype": "float32"
        },
        {
          "name": "Mixed_7a_Branch_1_Conv2d_1a_3x3_BatchNorm/beta",
          "shape": [256],
          "dtype": "float32"
        },
        {
          "name": "Mixed_7a_Branch_1_Conv2d_1a_3x3_BatchNorm/moving_mean",
          "shape": [256],
          "dtype": "float32"
        },
        {
          "name": "Mixed_7a_Branch_1_Conv2d_1a_3x3_BatchNorm/moving_variance",
          "shape": [256],
          "dtype": "float32"
        },
        {
          "name": "Mixed_7a_Branch_2_Conv2d_0a_1x1/kernel",
          "shape": [1, 1, 896, 256],
          "dtype": "float32"
        },
        {
          "name": "Mixed_7a_Branch_2_Conv2d_0a_1x1_BatchNorm/beta",
          "shape": [256],
          "dtype": "float32"
        },
        {
          "name": "Mixed_7a_Branch_2_Conv2d_0a_1x1_BatchNorm/moving_mean",
          "shape": [256],
          "dtype": "float32"
        },
        {
          "name": "Mixed_7a_Branch_2_Conv2d_0a_1x1_BatchNorm/moving_variance",
          "shape": [256],
          "dtype": "float32"
        },
        {
          "name": "Mixed_7a_Branch_2_Conv2d_0b_3x3/kernel",
          "shape": [3, 3, 256, 256],
          "dtype": "float32"
        },
        {
          "name": "Mixed_7a_Branch_2_Conv2d_0b_3x3_BatchNorm/beta",
          "shape": [256],
          "dtype": "float32"
        },
        {
          "name": "Mixed_7a_Branch_2_Conv2d_0b_3x3_BatchNorm/moving_mean",
          "shape": [256],
          "dtype": "float32"
        },
        {
          "name": "Mixed_7a_Branch_2_Conv2d_0b_3x3_BatchNorm/moving_variance",
          "shape": [256],
          "dtype": "float32"
        },
        {
          "name": "Mixed_7a_Branch_2_Conv2d_1a_3x3/kernel",
          "shape": [3, 3, 256, 256],
          "dtype": "float32"
        },
        {
          "name": "Mixed_7a_Branch_2_Conv2d_1a_3x3_BatchNorm/beta",
          "shape": [256],
          "dtype": "float32"
        },
        {
          "name": "Mixed_7a_Branch_2_Conv2d_1a_3x3_BatchNorm/moving_mean",
          "shape": [256],
          "dtype": "float32"
        },
        {
          "name": "Mixed_7a_Branch_2_Conv2d_1a_3x3_BatchNorm/moving_variance",
          "shape": [256],
          "dtype": "float32"
        }
      ]
    }
  ]
}
